DEBUG 02-12 15:49:42 [device.py:653] Creating turbine device for torch.device = device(type='cuda', index=0)
DEBUG 02-12 15:49:42 [apply.py:119] Source module:
class <lambda>(torch.nn.Module):
    def forward(self, arg0_1: "bf16[4096, 2048][2048, 1]", arg1_1: "bf16[2048, 8192][8192, 1]"):
         # File: /home/amily/iree-turbine/iree/turbine/kernel/boo/op_exports/aten.py:97 in forward, code: return func(*args, **kwargs)
        mm: "bf16[4096, 8192][8192, 1]" = torch.ops.aten.mm.default(arg0_1, arg1_1);  arg0_1 = arg1_1 = None
        return (mm,)
        
DEBUG 02-12 15:49:42 [subgraph.py:98] pre-sort node_list: [mm]
DEBUG 02-12 15:49:42 [subgraph.py:100] post-sort node_list: [mm]
DEBUG 02-12 15:49:42 [apply.py:119] Decomposed module:
class <lambda>(torch.nn.Module):
    def forward(self, arg0_1: "bf16[4096, 2048][2048, 1]", arg1_1: "bf16[2048, 8192][8192, 1]"):
        # No stacktrace found for following nodes
        mm: "bf16[4096, 8192][8192, 1]" = torch.ops.aten.mm.default(arg0_1, arg1_1);  arg0_1 = arg1_1 = None
        return (mm,)
        
DEBUG 02-12 15:49:42 [graph.py:271] Got hash str '663ddd6a283771c2759d4d196d270322eb46555a' for GraphModule: 
 class GraphModule(torch.nn.Module):
    def forward(self, arg0_1: "bf16[4096, 2048][2048, 1]", arg1_1: "bf16[2048, 8192][8192, 1]"):
        # No stacktrace found for following nodes
        mm: "bf16[4096, 8192][8192, 1]" = torch.ops.aten.mm.default(arg0_1, arg1_1);  arg0_1 = arg1_1 = None
        return (mm,)
        
DEBUG 02-12 15:49:42 [apply.py:119] Post-fusion module:
class <lambda>(torch.nn.Module):
    def forward(self, arg0_1: "bf16[4096, 2048][2048, 1]", arg1_1: "bf16[2048, 8192][8192, 1]"):
         # File: /home/amily/iree-turbine/iree/turbine/kernel/boo/op_exports/aten.py:97 in forward, code: return func(*args, **kwargs)
        fused_op_mm_663ddd6a283771c2759d4d196d270322eb46555a_4096x2048xbfloat16_2048x8192xbfloat16: "bf16[4096, 8192][8192, 1]" = torch.ops.boo.fused_op_mm_663ddd6a283771c2759d4d196d270322eb46555a_4096x2048xbfloat16_2048x8192xbfloat16(arg0_1, arg1_1);  arg0_1 = arg1_1 = None
        return (fused_op_mm_663ddd6a283771c2759d4d196d270322eb46555a_4096x2048xbfloat16_2048x8192xbfloat16,)
        
DEBUG 02-12 15:49:42 [launch.py:345] Saving newly generated mlir file to /home/amily/iree-turbine/iree/turbine/kernel/boo/driver/dump2/fused_op_mm_663ddd6a283771c2759d4d196d270322eb46555a_4096x2048xbfloat16_2048x8192xbfloat16/fused_op_mm_663ddd6a283771c2759d4d196d270322eb46555a_4096x2048xbfloat16_2048x8192xbfloat16.mlir
DEBUG 02-12 15:49:42 [launch.py:218] Compiling vmfb to cache: /home/amily/iree-turbine/iree/turbine/kernel/boo/driver/dump2/fused_op_mm_663ddd6a283771c2759d4d196d270322eb46555a_4096x2048xbfloat16_2048x8192xbfloat16/0831dbe5d0cf8f642aba5b8358bd979a07b4bf39.vmfb
DEBUG 02-12 15:49:43 [launch.py:193] Cached new module for hip:--iree-hal-target-backends=rocm;--iree-hip-target=mi300x
DEBUG 02-12 15:49:43 [launch.py:148] Cached new binary for hip:1:0
DEBUG 02-12 15:49:43 [launch.py:171] Launching cached binary for hip:1:0
DEBUG 02-12 15:49:43 [apply.py:119] Source module:
class <lambda>(torch.nn.Module):
    def forward(self, arg0_1: "bf16[2048, 4096][1, 2048]", arg1_1: "bf16[4096, 8192][8192, 1]"):
         # File: /home/amily/iree-turbine/iree/turbine/kernel/boo/op_exports/aten.py:97 in forward, code: return func(*args, **kwargs)
        mm: "bf16[2048, 8192][8192, 1]" = torch.ops.aten.mm.default(arg0_1, arg1_1);  arg0_1 = arg1_1 = None
        return (mm,)
        
DEBUG 02-12 15:49:43 [subgraph.py:98] pre-sort node_list: [mm]
DEBUG 02-12 15:49:43 [subgraph.py:100] post-sort node_list: [mm]
DEBUG 02-12 15:49:43 [apply.py:119] Decomposed module:
class <lambda>(torch.nn.Module):
    def forward(self, arg0_1: "bf16[2048, 4096][1, 2048]", arg1_1: "bf16[4096, 8192][8192, 1]"):
        # No stacktrace found for following nodes
        mm: "bf16[2048, 8192][8192, 1]" = torch.ops.aten.mm.default(arg0_1, arg1_1);  arg0_1 = arg1_1 = None
        return (mm,)
        
DEBUG 02-12 15:49:43 [graph.py:271] Got hash str '9474bfb9b05d11df926e982001879ff6f8416045' for GraphModule: 
 class GraphModule(torch.nn.Module):
    def forward(self, arg0_1_boo: "bf16[4096, 2048][2048, 1]", arg1_1: "bf16[4096, 8192][8192, 1]"):
        # No stacktrace found for following nodes
        permute_default: "bf16[2048, 4096][1, 2048]" = torch.ops.aten.permute.default(arg0_1_boo, [1, 0]);  arg0_1_boo = None
        mm: "bf16[2048, 8192][8192, 1]" = torch.ops.aten.mm.default(permute_default, arg1_1);  permute_default = arg1_1 = None
        return (mm,)
        
DEBUG 02-12 15:49:43 [apply.py:119] Post-fusion module:
class <lambda>(torch.nn.Module):
    def forward(self, arg0_1: "bf16[2048, 4096][1, 2048]", arg1_1: "bf16[4096, 8192][8192, 1]"):
         # File: /home/amily/iree-turbine/iree/turbine/kernel/boo/op_exports/aten.py:97 in forward, code: return func(*args, **kwargs)
        fused_op_mm_9474bfb9b05d11df926e982001879ff6f8416045_4096x2048xbfloat16_4096x8192xbfloat16: "bf16[2048, 8192][8192, 1]" = torch.ops.boo.fused_op_mm_9474bfb9b05d11df926e982001879ff6f8416045_4096x2048xbfloat16_4096x8192xbfloat16(arg0_1, arg1_1);  arg0_1 = arg1_1 = None
        return (fused_op_mm_9474bfb9b05d11df926e982001879ff6f8416045_4096x2048xbfloat16_4096x8192xbfloat16,)
        
DEBUG 02-12 15:49:43 [launch.py:345] Saving newly generated mlir file to /home/amily/iree-turbine/iree/turbine/kernel/boo/driver/dump2/fused_op_mm_9474bfb9b05d11df926e982001879ff6f8416045_4096x2048xbfloat16_4096x8192xbfloat16/fused_op_mm_9474bfb9b05d11df926e982001879ff6f8416045_4096x2048xbfloat16_4096x8192xbfloat16.mlir
DEBUG 02-12 15:49:43 [launch.py:218] Compiling vmfb to cache: /home/amily/iree-turbine/iree/turbine/kernel/boo/driver/dump2/fused_op_mm_9474bfb9b05d11df926e982001879ff6f8416045_4096x2048xbfloat16_4096x8192xbfloat16/0831dbe5d0cf8f642aba5b8358bd979a07b4bf39.vmfb
DEBUG 02-12 15:49:44 [launch.py:193] Cached new module for hip:--iree-hal-target-backends=rocm;--iree-hip-target=mi300x
DEBUG 02-12 15:49:44 [launch.py:148] Cached new binary for hip:1:0
DEBUG 02-12 15:49:44 [launch.py:171] Launching cached binary for hip:1:0
DEBUG 02-12 15:49:44 [apply.py:119] Source module:
class <lambda>(torch.nn.Module):
    def forward(self, arg0_1: "bf16[8192, 4096][1, 8192]", arg1_1: "bf16[4096, 2048][2048, 1]"):
         # File: /home/amily/iree-turbine/iree/turbine/kernel/boo/op_exports/aten.py:97 in forward, code: return func(*args, **kwargs)
        mm: "bf16[8192, 2048][2048, 1]" = torch.ops.aten.mm.default(arg0_1, arg1_1);  arg0_1 = arg1_1 = None
        return (mm,)
        
DEBUG 02-12 15:49:44 [subgraph.py:98] pre-sort node_list: [mm]
DEBUG 02-12 15:49:44 [subgraph.py:100] post-sort node_list: [mm]
DEBUG 02-12 15:49:44 [apply.py:119] Decomposed module:
class <lambda>(torch.nn.Module):
    def forward(self, arg0_1: "bf16[8192, 4096][1, 8192]", arg1_1: "bf16[4096, 2048][2048, 1]"):
        # No stacktrace found for following nodes
        mm: "bf16[8192, 2048][2048, 1]" = torch.ops.aten.mm.default(arg0_1, arg1_1);  arg0_1 = arg1_1 = None
        return (mm,)
        
DEBUG 02-12 15:49:44 [graph.py:271] Got hash str '0fdb139d0976e1e45f0b6862c30603fd461efbad' for GraphModule: 
 class GraphModule(torch.nn.Module):
    def forward(self, arg0_1_boo: "bf16[4096, 8192][8192, 1]", arg1_1: "bf16[4096, 2048][2048, 1]"):
        # No stacktrace found for following nodes
        permute_default: "bf16[8192, 4096][1, 8192]" = torch.ops.aten.permute.default(arg0_1_boo, [1, 0]);  arg0_1_boo = None
        mm: "bf16[8192, 2048][2048, 1]" = torch.ops.aten.mm.default(permute_default, arg1_1);  permute_default = arg1_1 = None
        return (mm,)
        
DEBUG 02-12 15:49:44 [apply.py:119] Post-fusion module:
class <lambda>(torch.nn.Module):
    def forward(self, arg0_1: "bf16[8192, 4096][1, 8192]", arg1_1: "bf16[4096, 2048][2048, 1]"):
         # File: /home/amily/iree-turbine/iree/turbine/kernel/boo/op_exports/aten.py:97 in forward, code: return func(*args, **kwargs)
        fused_op_mm_0fdb139d0976e1e45f0b6862c30603fd461efbad_4096x8192xbfloat16_4096x2048xbfloat16: "bf16[8192, 2048][2048, 1]" = torch.ops.boo.fused_op_mm_0fdb139d0976e1e45f0b6862c30603fd461efbad_4096x8192xbfloat16_4096x2048xbfloat16(arg0_1, arg1_1);  arg0_1 = arg1_1 = None
        return (fused_op_mm_0fdb139d0976e1e45f0b6862c30603fd461efbad_4096x8192xbfloat16_4096x2048xbfloat16,)
        
DEBUG 02-12 15:49:44 [launch.py:345] Saving newly generated mlir file to /home/amily/iree-turbine/iree/turbine/kernel/boo/driver/dump2/fused_op_mm_0fdb139d0976e1e45f0b6862c30603fd461efbad_4096x8192xbfloat16_4096x2048xbfloat16/fused_op_mm_0fdb139d0976e1e45f0b6862c30603fd461efbad_4096x8192xbfloat16_4096x2048xbfloat16.mlir
DEBUG 02-12 15:49:44 [launch.py:218] Compiling vmfb to cache: /home/amily/iree-turbine/iree/turbine/kernel/boo/driver/dump2/fused_op_mm_0fdb139d0976e1e45f0b6862c30603fd461efbad_4096x8192xbfloat16_4096x2048xbfloat16/0831dbe5d0cf8f642aba5b8358bd979a07b4bf39.vmfb
DEBUG 02-12 15:49:44 [launch.py:193] Cached new module for hip:--iree-hal-target-backends=rocm;--iree-hip-target=mi300x
DEBUG 02-12 15:49:44 [launch.py:148] Cached new binary for hip:1:0
DEBUG 02-12 15:49:44 [launch.py:171] Launching cached binary for hip:1:0
DEBUG 02-12 15:49:44 [apply.py:119] Source module:
class <lambda>(torch.nn.Module):
    def forward(self, arg0_1: "bf16[4096, 8192][8192, 1]", arg1_1: "bf16[8192, 2048][2048, 1]"):
         # File: /home/amily/iree-turbine/iree/turbine/kernel/boo/op_exports/aten.py:97 in forward, code: return func(*args, **kwargs)
        mm: "bf16[4096, 2048][2048, 1]" = torch.ops.aten.mm.default(arg0_1, arg1_1);  arg0_1 = arg1_1 = None
        return (mm,)
        
DEBUG 02-12 15:49:44 [subgraph.py:98] pre-sort node_list: [mm]
DEBUG 02-12 15:49:44 [subgraph.py:100] post-sort node_list: [mm]
DEBUG 02-12 15:49:44 [apply.py:119] Decomposed module:
class <lambda>(torch.nn.Module):
    def forward(self, arg0_1: "bf16[4096, 8192][8192, 1]", arg1_1: "bf16[8192, 2048][2048, 1]"):
        # No stacktrace found for following nodes
        mm: "bf16[4096, 2048][2048, 1]" = torch.ops.aten.mm.default(arg0_1, arg1_1);  arg0_1 = arg1_1 = None
        return (mm,)
        
DEBUG 02-12 15:49:44 [graph.py:271] Got hash str '802788ed6f6fa79a7b4bd8492e2f1e320bc5ba41' for GraphModule: 
 class GraphModule(torch.nn.Module):
    def forward(self, arg0_1: "bf16[4096, 8192][8192, 1]", arg1_1: "bf16[8192, 2048][2048, 1]"):
        # No stacktrace found for following nodes
        mm: "bf16[4096, 2048][2048, 1]" = torch.ops.aten.mm.default(arg0_1, arg1_1);  arg0_1 = arg1_1 = None
        return (mm,)
        
DEBUG 02-12 15:49:44 [apply.py:119] Post-fusion module:
class <lambda>(torch.nn.Module):
    def forward(self, arg0_1: "bf16[4096, 8192][8192, 1]", arg1_1: "bf16[8192, 2048][2048, 1]"):
         # File: /home/amily/iree-turbine/iree/turbine/kernel/boo/op_exports/aten.py:97 in forward, code: return func(*args, **kwargs)
        fused_op_mm_802788ed6f6fa79a7b4bd8492e2f1e320bc5ba41_4096x8192xbfloat16_8192x2048xbfloat16: "bf16[4096, 2048][2048, 1]" = torch.ops.boo.fused_op_mm_802788ed6f6fa79a7b4bd8492e2f1e320bc5ba41_4096x8192xbfloat16_8192x2048xbfloat16(arg0_1, arg1_1);  arg0_1 = arg1_1 = None
        return (fused_op_mm_802788ed6f6fa79a7b4bd8492e2f1e320bc5ba41_4096x8192xbfloat16_8192x2048xbfloat16,)
        
DEBUG 02-12 15:49:45 [launch.py:345] Saving newly generated mlir file to /home/amily/iree-turbine/iree/turbine/kernel/boo/driver/dump2/fused_op_mm_802788ed6f6fa79a7b4bd8492e2f1e320bc5ba41_4096x8192xbfloat16_8192x2048xbfloat16/fused_op_mm_802788ed6f6fa79a7b4bd8492e2f1e320bc5ba41_4096x8192xbfloat16_8192x2048xbfloat16.mlir
DEBUG 02-12 15:49:45 [launch.py:218] Compiling vmfb to cache: /home/amily/iree-turbine/iree/turbine/kernel/boo/driver/dump2/fused_op_mm_802788ed6f6fa79a7b4bd8492e2f1e320bc5ba41_4096x8192xbfloat16_8192x2048xbfloat16/0831dbe5d0cf8f642aba5b8358bd979a07b4bf39.vmfb
DEBUG 02-12 15:49:45 [launch.py:193] Cached new module for hip:--iree-hal-target-backends=rocm;--iree-hip-target=mi300x
DEBUG 02-12 15:49:45 [launch.py:148] Cached new binary for hip:1:0
DEBUG 02-12 15:49:45 [launch.py:171] Launching cached binary for hip:1:0
DEBUG 02-12 15:49:45 [apply.py:119] Source module:
class <lambda>(torch.nn.Module):
    def forward(self, arg0_1: "bf16[4096, 8192][8192, 1]", arg1_1: "bf16[8192, 2048][1, 8192]"):
         # File: /home/amily/iree-turbine/iree/turbine/kernel/boo/op_exports/aten.py:97 in forward, code: return func(*args, **kwargs)
        mm: "bf16[4096, 2048][2048, 1]" = torch.ops.aten.mm.default(arg0_1, arg1_1);  arg0_1 = arg1_1 = None
        return (mm,)
        
DEBUG 02-12 15:49:45 [subgraph.py:98] pre-sort node_list: [mm]
DEBUG 02-12 15:49:45 [subgraph.py:100] post-sort node_list: [mm]
DEBUG 02-12 15:49:45 [apply.py:119] Decomposed module:
class <lambda>(torch.nn.Module):
    def forward(self, arg0_1: "bf16[4096, 8192][8192, 1]", arg1_1: "bf16[8192, 2048][1, 8192]"):
        # No stacktrace found for following nodes
        mm: "bf16[4096, 2048][2048, 1]" = torch.ops.aten.mm.default(arg0_1, arg1_1);  arg0_1 = arg1_1 = None
        return (mm,)
        
DEBUG 02-12 15:49:45 [graph.py:271] Got hash str '0c102c36117103e2a7b9ad853325b6116cc3c0ba' for GraphModule: 
 class GraphModule(torch.nn.Module):
    def forward(self, arg0_1: "bf16[4096, 8192][8192, 1]", arg1_1_boo: "bf16[2048, 8192][8192, 1]"):
        # No stacktrace found for following nodes
        permute_default: "bf16[8192, 2048][1, 8192]" = torch.ops.aten.permute.default(arg1_1_boo, [1, 0]);  arg1_1_boo = None
        mm: "bf16[4096, 2048][2048, 1]" = torch.ops.aten.mm.default(arg0_1, permute_default);  arg0_1 = permute_default = None
        return (mm,)
        
DEBUG 02-12 15:49:45 [apply.py:119] Post-fusion module:
class <lambda>(torch.nn.Module):
    def forward(self, arg0_1: "bf16[4096, 8192][8192, 1]", arg1_1: "bf16[8192, 2048][1, 8192]"):
         # File: /home/amily/iree-turbine/iree/turbine/kernel/boo/op_exports/aten.py:97 in forward, code: return func(*args, **kwargs)
        fused_op_mm_0c102c36117103e2a7b9ad853325b6116cc3c0ba_4096x8192xbfloat16_2048x8192xbfloat16: "bf16[4096, 2048][2048, 1]" = torch.ops.boo.fused_op_mm_0c102c36117103e2a7b9ad853325b6116cc3c0ba_4096x8192xbfloat16_2048x8192xbfloat16(arg0_1, arg1_1);  arg0_1 = arg1_1 = None
        return (fused_op_mm_0c102c36117103e2a7b9ad853325b6116cc3c0ba_4096x8192xbfloat16_2048x8192xbfloat16,)
        
DEBUG 02-12 15:49:45 [launch.py:345] Saving newly generated mlir file to /home/amily/iree-turbine/iree/turbine/kernel/boo/driver/dump2/fused_op_mm_0c102c36117103e2a7b9ad853325b6116cc3c0ba_4096x8192xbfloat16_2048x8192xbfloat16/fused_op_mm_0c102c36117103e2a7b9ad853325b6116cc3c0ba_4096x8192xbfloat16_2048x8192xbfloat16.mlir
DEBUG 02-12 15:49:45 [launch.py:218] Compiling vmfb to cache: /home/amily/iree-turbine/iree/turbine/kernel/boo/driver/dump2/fused_op_mm_0c102c36117103e2a7b9ad853325b6116cc3c0ba_4096x8192xbfloat16_2048x8192xbfloat16/0831dbe5d0cf8f642aba5b8358bd979a07b4bf39.vmfb
DEBUG 02-12 15:49:46 [launch.py:193] Cached new module for hip:--iree-hal-target-backends=rocm;--iree-hip-target=mi300x
DEBUG 02-12 15:49:46 [launch.py:148] Cached new binary for hip:1:0
DEBUG 02-12 15:49:46 [launch.py:171] Launching cached binary for hip:1:0
DEBUG 02-12 15:49:46 [apply.py:119] Source module:
class <lambda>(torch.nn.Module):
    def forward(self, arg0_1: "bf16[6144, 4096][1, 6144]", arg1_1: "bf16[4096, 2048][2048, 1]"):
         # File: /home/amily/iree-turbine/iree/turbine/kernel/boo/op_exports/aten.py:97 in forward, code: return func(*args, **kwargs)
        mm: "bf16[6144, 2048][2048, 1]" = torch.ops.aten.mm.default(arg0_1, arg1_1);  arg0_1 = arg1_1 = None
        return (mm,)
        
DEBUG 02-12 15:49:46 [subgraph.py:98] pre-sort node_list: [mm]
DEBUG 02-12 15:49:46 [subgraph.py:100] post-sort node_list: [mm]
DEBUG 02-12 15:49:46 [apply.py:119] Decomposed module:
class <lambda>(torch.nn.Module):
    def forward(self, arg0_1: "bf16[6144, 4096][1, 6144]", arg1_1: "bf16[4096, 2048][2048, 1]"):
        # No stacktrace found for following nodes
        mm: "bf16[6144, 2048][2048, 1]" = torch.ops.aten.mm.default(arg0_1, arg1_1);  arg0_1 = arg1_1 = None
        return (mm,)
        
DEBUG 02-12 15:49:46 [graph.py:271] Got hash str '88fff1ad50da9b51077fb3eca5249b83de877795' for GraphModule: 
 class GraphModule(torch.nn.Module):
    def forward(self, arg0_1_boo: "bf16[4096, 6144][6144, 1]", arg1_1: "bf16[4096, 2048][2048, 1]"):
        # No stacktrace found for following nodes
        permute_default: "bf16[6144, 4096][1, 6144]" = torch.ops.aten.permute.default(arg0_1_boo, [1, 0]);  arg0_1_boo = None
        mm: "bf16[6144, 2048][2048, 1]" = torch.ops.aten.mm.default(permute_default, arg1_1);  permute_default = arg1_1 = None
        return (mm,)
        
DEBUG 02-12 15:49:46 [apply.py:119] Post-fusion module:
class <lambda>(torch.nn.Module):
    def forward(self, arg0_1: "bf16[6144, 4096][1, 6144]", arg1_1: "bf16[4096, 2048][2048, 1]"):
         # File: /home/amily/iree-turbine/iree/turbine/kernel/boo/op_exports/aten.py:97 in forward, code: return func(*args, **kwargs)
        fused_op_mm_88fff1ad50da9b51077fb3eca5249b83de877795_4096x6144xbfloat16_4096x2048xbfloat16: "bf16[6144, 2048][2048, 1]" = torch.ops.boo.fused_op_mm_88fff1ad50da9b51077fb3eca5249b83de877795_4096x6144xbfloat16_4096x2048xbfloat16(arg0_1, arg1_1);  arg0_1 = arg1_1 = None
        return (fused_op_mm_88fff1ad50da9b51077fb3eca5249b83de877795_4096x6144xbfloat16_4096x2048xbfloat16,)
        
DEBUG 02-12 15:49:46 [launch.py:345] Saving newly generated mlir file to /home/amily/iree-turbine/iree/turbine/kernel/boo/driver/dump2/fused_op_mm_88fff1ad50da9b51077fb3eca5249b83de877795_4096x6144xbfloat16_4096x2048xbfloat16/fused_op_mm_88fff1ad50da9b51077fb3eca5249b83de877795_4096x6144xbfloat16_4096x2048xbfloat16.mlir
DEBUG 02-12 15:49:46 [launch.py:218] Compiling vmfb to cache: /home/amily/iree-turbine/iree/turbine/kernel/boo/driver/dump2/fused_op_mm_88fff1ad50da9b51077fb3eca5249b83de877795_4096x6144xbfloat16_4096x2048xbfloat16/0831dbe5d0cf8f642aba5b8358bd979a07b4bf39.vmfb
DEBUG 02-12 15:49:47 [launch.py:193] Cached new module for hip:--iree-hal-target-backends=rocm;--iree-hip-target=mi300x
DEBUG 02-12 15:49:47 [launch.py:148] Cached new binary for hip:1:0
DEBUG 02-12 15:49:47 [launch.py:171] Launching cached binary for hip:1:0
DEBUG 02-12 15:49:47 [apply.py:119] Source module:
class <lambda>(torch.nn.Module):
    def forward(self, arg0_1: "bf16[4096, 6144][6144, 1]", arg1_1: "bf16[6144, 2048][2048, 1]"):
         # File: /home/amily/iree-turbine/iree/turbine/kernel/boo/op_exports/aten.py:97 in forward, code: return func(*args, **kwargs)
        mm: "bf16[4096, 2048][2048, 1]" = torch.ops.aten.mm.default(arg0_1, arg1_1);  arg0_1 = arg1_1 = None
        return (mm,)
        
DEBUG 02-12 15:49:47 [subgraph.py:98] pre-sort node_list: [mm]
DEBUG 02-12 15:49:47 [subgraph.py:100] post-sort node_list: [mm]
DEBUG 02-12 15:49:47 [apply.py:119] Decomposed module:
class <lambda>(torch.nn.Module):
    def forward(self, arg0_1: "bf16[4096, 6144][6144, 1]", arg1_1: "bf16[6144, 2048][2048, 1]"):
        # No stacktrace found for following nodes
        mm: "bf16[4096, 2048][2048, 1]" = torch.ops.aten.mm.default(arg0_1, arg1_1);  arg0_1 = arg1_1 = None
        return (mm,)
        
DEBUG 02-12 15:49:47 [graph.py:271] Got hash str 'ab4d8152dba7dbdd3cc67c029d36f86b87c85f36' for GraphModule: 
 class GraphModule(torch.nn.Module):
    def forward(self, arg0_1: "bf16[4096, 6144][6144, 1]", arg1_1: "bf16[6144, 2048][2048, 1]"):
        # No stacktrace found for following nodes
        mm: "bf16[4096, 2048][2048, 1]" = torch.ops.aten.mm.default(arg0_1, arg1_1);  arg0_1 = arg1_1 = None
        return (mm,)
        
DEBUG 02-12 15:49:47 [apply.py:119] Post-fusion module:
class <lambda>(torch.nn.Module):
    def forward(self, arg0_1: "bf16[4096, 6144][6144, 1]", arg1_1: "bf16[6144, 2048][2048, 1]"):
         # File: /home/amily/iree-turbine/iree/turbine/kernel/boo/op_exports/aten.py:97 in forward, code: return func(*args, **kwargs)
        fused_op_mm_ab4d8152dba7dbdd3cc67c029d36f86b87c85f36_4096x6144xbfloat16_6144x2048xbfloat16: "bf16[4096, 2048][2048, 1]" = torch.ops.boo.fused_op_mm_ab4d8152dba7dbdd3cc67c029d36f86b87c85f36_4096x6144xbfloat16_6144x2048xbfloat16(arg0_1, arg1_1);  arg0_1 = arg1_1 = None
        return (fused_op_mm_ab4d8152dba7dbdd3cc67c029d36f86b87c85f36_4096x6144xbfloat16_6144x2048xbfloat16,)
        
DEBUG 02-12 15:49:47 [launch.py:345] Saving newly generated mlir file to /home/amily/iree-turbine/iree/turbine/kernel/boo/driver/dump2/fused_op_mm_ab4d8152dba7dbdd3cc67c029d36f86b87c85f36_4096x6144xbfloat16_6144x2048xbfloat16/fused_op_mm_ab4d8152dba7dbdd3cc67c029d36f86b87c85f36_4096x6144xbfloat16_6144x2048xbfloat16.mlir
DEBUG 02-12 15:49:47 [launch.py:218] Compiling vmfb to cache: /home/amily/iree-turbine/iree/turbine/kernel/boo/driver/dump2/fused_op_mm_ab4d8152dba7dbdd3cc67c029d36f86b87c85f36_4096x6144xbfloat16_6144x2048xbfloat16/0831dbe5d0cf8f642aba5b8358bd979a07b4bf39.vmfb
DEBUG 02-12 15:49:47 [launch.py:193] Cached new module for hip:--iree-hal-target-backends=rocm;--iree-hip-target=mi300x
DEBUG 02-12 15:49:47 [launch.py:148] Cached new binary for hip:1:0
DEBUG 02-12 15:49:47 [launch.py:171] Launching cached binary for hip:1:0
DEBUG 02-12 15:49:47 [apply.py:119] Source module:
class <lambda>(torch.nn.Module):
    def forward(self, arg0_1: "bf16[4096, 2048][2048, 1]", arg1_1: "bf16[2048, 2048][2048, 1]"):
         # File: /home/amily/iree-turbine/iree/turbine/kernel/boo/op_exports/aten.py:97 in forward, code: return func(*args, **kwargs)
        mm: "bf16[4096, 2048][2048, 1]" = torch.ops.aten.mm.default(arg0_1, arg1_1);  arg0_1 = arg1_1 = None
        return (mm,)
        
DEBUG 02-12 15:49:47 [subgraph.py:98] pre-sort node_list: [mm]
DEBUG 02-12 15:49:47 [subgraph.py:100] post-sort node_list: [mm]
DEBUG 02-12 15:49:47 [apply.py:119] Decomposed module:
class <lambda>(torch.nn.Module):
    def forward(self, arg0_1: "bf16[4096, 2048][2048, 1]", arg1_1: "bf16[2048, 2048][2048, 1]"):
        # No stacktrace found for following nodes
        mm: "bf16[4096, 2048][2048, 1]" = torch.ops.aten.mm.default(arg0_1, arg1_1);  arg0_1 = arg1_1 = None
        return (mm,)
        
DEBUG 02-12 15:49:47 [graph.py:271] Got hash str '3bae4c2bfbe0ebbc639738b4ac09969f231dd821' for GraphModule: 
 class GraphModule(torch.nn.Module):
    def forward(self, arg0_1: "bf16[4096, 2048][2048, 1]", arg1_1: "bf16[2048, 2048][2048, 1]"):
        # No stacktrace found for following nodes
        mm: "bf16[4096, 2048][2048, 1]" = torch.ops.aten.mm.default(arg0_1, arg1_1);  arg0_1 = arg1_1 = None
        return (mm,)
        
DEBUG 02-12 15:49:47 [apply.py:119] Post-fusion module:
class <lambda>(torch.nn.Module):
    def forward(self, arg0_1: "bf16[4096, 2048][2048, 1]", arg1_1: "bf16[2048, 2048][2048, 1]"):
         # File: /home/amily/iree-turbine/iree/turbine/kernel/boo/op_exports/aten.py:97 in forward, code: return func(*args, **kwargs)
        fused_op_mm_3bae4c2bfbe0ebbc639738b4ac09969f231dd821_4096x2048xbfloat16_2048x2048xbfloat16: "bf16[4096, 2048][2048, 1]" = torch.ops.boo.fused_op_mm_3bae4c2bfbe0ebbc639738b4ac09969f231dd821_4096x2048xbfloat16_2048x2048xbfloat16(arg0_1, arg1_1);  arg0_1 = arg1_1 = None
        return (fused_op_mm_3bae4c2bfbe0ebbc639738b4ac09969f231dd821_4096x2048xbfloat16_2048x2048xbfloat16,)
        
DEBUG 02-12 15:49:48 [launch.py:345] Saving newly generated mlir file to /home/amily/iree-turbine/iree/turbine/kernel/boo/driver/dump2/fused_op_mm_3bae4c2bfbe0ebbc639738b4ac09969f231dd821_4096x2048xbfloat16_2048x2048xbfloat16/fused_op_mm_3bae4c2bfbe0ebbc639738b4ac09969f231dd821_4096x2048xbfloat16_2048x2048xbfloat16.mlir
DEBUG 02-12 15:49:48 [launch.py:218] Compiling vmfb to cache: /home/amily/iree-turbine/iree/turbine/kernel/boo/driver/dump2/fused_op_mm_3bae4c2bfbe0ebbc639738b4ac09969f231dd821_4096x2048xbfloat16_2048x2048xbfloat16/0831dbe5d0cf8f642aba5b8358bd979a07b4bf39.vmfb
DEBUG 02-12 15:49:48 [launch.py:193] Cached new module for hip:--iree-hal-target-backends=rocm;--iree-hip-target=mi300x
DEBUG 02-12 15:49:48 [launch.py:148] Cached new binary for hip:1:0
DEBUG 02-12 15:49:48 [launch.py:171] Launching cached binary for hip:1:0
DEBUG 02-12 15:49:48 [apply.py:119] Source module:
class <lambda>(torch.nn.Module):
    def forward(self, arg0_1: "bf16[4096, 2048][2048, 1]", arg1_1: "bf16[2048, 2048][1, 2048]"):
         # File: /home/amily/iree-turbine/iree/turbine/kernel/boo/op_exports/aten.py:97 in forward, code: return func(*args, **kwargs)
        mm: "bf16[4096, 2048][2048, 1]" = torch.ops.aten.mm.default(arg0_1, arg1_1);  arg0_1 = arg1_1 = None
        return (mm,)
        
DEBUG 02-12 15:49:48 [subgraph.py:98] pre-sort node_list: [mm]
DEBUG 02-12 15:49:48 [subgraph.py:100] post-sort node_list: [mm]
DEBUG 02-12 15:49:48 [apply.py:119] Decomposed module:
class <lambda>(torch.nn.Module):
    def forward(self, arg0_1: "bf16[4096, 2048][2048, 1]", arg1_1: "bf16[2048, 2048][1, 2048]"):
        # No stacktrace found for following nodes
        mm: "bf16[4096, 2048][2048, 1]" = torch.ops.aten.mm.default(arg0_1, arg1_1);  arg0_1 = arg1_1 = None
        return (mm,)
        
DEBUG 02-12 15:49:48 [graph.py:271] Got hash str '23a1904c23d796acf48d30815be1f767e3debc24' for GraphModule: 
 class GraphModule(torch.nn.Module):
    def forward(self, arg0_1: "bf16[4096, 2048][2048, 1]", arg1_1_boo: "bf16[2048, 2048][2048, 1]"):
        # No stacktrace found for following nodes
        permute_default: "bf16[2048, 2048][1, 2048]" = torch.ops.aten.permute.default(arg1_1_boo, [1, 0]);  arg1_1_boo = None
        mm: "bf16[4096, 2048][2048, 1]" = torch.ops.aten.mm.default(arg0_1, permute_default);  arg0_1 = permute_default = None
        return (mm,)
        
DEBUG 02-12 15:49:48 [apply.py:119] Post-fusion module:
class <lambda>(torch.nn.Module):
    def forward(self, arg0_1: "bf16[4096, 2048][2048, 1]", arg1_1: "bf16[2048, 2048][1, 2048]"):
         # File: /home/amily/iree-turbine/iree/turbine/kernel/boo/op_exports/aten.py:97 in forward, code: return func(*args, **kwargs)
        fused_op_mm_23a1904c23d796acf48d30815be1f767e3debc24_4096x2048xbfloat16_2048x2048xbfloat16: "bf16[4096, 2048][2048, 1]" = torch.ops.boo.fused_op_mm_23a1904c23d796acf48d30815be1f767e3debc24_4096x2048xbfloat16_2048x2048xbfloat16(arg0_1, arg1_1);  arg0_1 = arg1_1 = None
        return (fused_op_mm_23a1904c23d796acf48d30815be1f767e3debc24_4096x2048xbfloat16_2048x2048xbfloat16,)
        
DEBUG 02-12 15:49:48 [launch.py:345] Saving newly generated mlir file to /home/amily/iree-turbine/iree/turbine/kernel/boo/driver/dump2/fused_op_mm_23a1904c23d796acf48d30815be1f767e3debc24_4096x2048xbfloat16_2048x2048xbfloat16/fused_op_mm_23a1904c23d796acf48d30815be1f767e3debc24_4096x2048xbfloat16_2048x2048xbfloat16.mlir
DEBUG 02-12 15:49:48 [launch.py:218] Compiling vmfb to cache: /home/amily/iree-turbine/iree/turbine/kernel/boo/driver/dump2/fused_op_mm_23a1904c23d796acf48d30815be1f767e3debc24_4096x2048xbfloat16_2048x2048xbfloat16/0831dbe5d0cf8f642aba5b8358bd979a07b4bf39.vmfb
DEBUG 02-12 15:49:49 [launch.py:193] Cached new module for hip:--iree-hal-target-backends=rocm;--iree-hip-target=mi300x
DEBUG 02-12 15:49:49 [launch.py:148] Cached new binary for hip:1:0
DEBUG 02-12 15:49:49 [launch.py:171] Launching cached binary for hip:1:0
DEBUG 02-12 15:49:49 [apply.py:119] Source module:
class <lambda>(torch.nn.Module):
    def forward(self, arg0_1: "bf16[2048, 4096][1, 2048]", arg1_1: "bf16[4096, 2048][2048, 1]"):
         # File: /home/amily/iree-turbine/iree/turbine/kernel/boo/op_exports/aten.py:97 in forward, code: return func(*args, **kwargs)
        mm: "bf16[2048, 2048][2048, 1]" = torch.ops.aten.mm.default(arg0_1, arg1_1);  arg0_1 = arg1_1 = None
        return (mm,)
        
DEBUG 02-12 15:49:49 [subgraph.py:98] pre-sort node_list: [mm]
DEBUG 02-12 15:49:49 [subgraph.py:100] post-sort node_list: [mm]
DEBUG 02-12 15:49:49 [apply.py:119] Decomposed module:
class <lambda>(torch.nn.Module):
    def forward(self, arg0_1: "bf16[2048, 4096][1, 2048]", arg1_1: "bf16[4096, 2048][2048, 1]"):
        # No stacktrace found for following nodes
        mm: "bf16[2048, 2048][2048, 1]" = torch.ops.aten.mm.default(arg0_1, arg1_1);  arg0_1 = arg1_1 = None
        return (mm,)
        
DEBUG 02-12 15:49:49 [graph.py:271] Got hash str 'fd7ec37cb7ebe8effd8c59d88b774d82c1e0fb60' for GraphModule: 
 class GraphModule(torch.nn.Module):
    def forward(self, arg0_1_boo: "bf16[4096, 2048][2048, 1]", arg1_1: "bf16[4096, 2048][2048, 1]"):
        # No stacktrace found for following nodes
        permute_default: "bf16[2048, 4096][1, 2048]" = torch.ops.aten.permute.default(arg0_1_boo, [1, 0]);  arg0_1_boo = None
        mm: "bf16[2048, 2048][2048, 1]" = torch.ops.aten.mm.default(permute_default, arg1_1);  permute_default = arg1_1 = None
        return (mm,)
        
DEBUG 02-12 15:49:49 [apply.py:119] Post-fusion module:
class <lambda>(torch.nn.Module):
    def forward(self, arg0_1: "bf16[2048, 4096][1, 2048]", arg1_1: "bf16[4096, 2048][2048, 1]"):
         # File: /home/amily/iree-turbine/iree/turbine/kernel/boo/op_exports/aten.py:97 in forward, code: return func(*args, **kwargs)
        fused_op_mm_fd7ec37cb7ebe8effd8c59d88b774d82c1e0fb60_4096x2048xbfloat16_4096x2048xbfloat16: "bf16[2048, 2048][2048, 1]" = torch.ops.boo.fused_op_mm_fd7ec37cb7ebe8effd8c59d88b774d82c1e0fb60_4096x2048xbfloat16_4096x2048xbfloat16(arg0_1, arg1_1);  arg0_1 = arg1_1 = None
        return (fused_op_mm_fd7ec37cb7ebe8effd8c59d88b774d82c1e0fb60_4096x2048xbfloat16_4096x2048xbfloat16,)
        
DEBUG 02-12 15:49:49 [launch.py:345] Saving newly generated mlir file to /home/amily/iree-turbine/iree/turbine/kernel/boo/driver/dump2/fused_op_mm_fd7ec37cb7ebe8effd8c59d88b774d82c1e0fb60_4096x2048xbfloat16_4096x2048xbfloat16/fused_op_mm_fd7ec37cb7ebe8effd8c59d88b774d82c1e0fb60_4096x2048xbfloat16_4096x2048xbfloat16.mlir
DEBUG 02-12 15:49:49 [launch.py:218] Compiling vmfb to cache: /home/amily/iree-turbine/iree/turbine/kernel/boo/driver/dump2/fused_op_mm_fd7ec37cb7ebe8effd8c59d88b774d82c1e0fb60_4096x2048xbfloat16_4096x2048xbfloat16/0831dbe5d0cf8f642aba5b8358bd979a07b4bf39.vmfb
DEBUG 02-12 15:49:50 [launch.py:193] Cached new module for hip:--iree-hal-target-backends=rocm;--iree-hip-target=mi300x
DEBUG 02-12 15:49:50 [launch.py:148] Cached new binary for hip:1:0
DEBUG 02-12 15:49:50 [launch.py:171] Launching cached binary for hip:1:0
DEBUG 02-12 15:49:50 [apply.py:119] Source module:
class <lambda>(torch.nn.Module):
    def forward(self, arg0_1: "bf16[512, 24576][1, 512]", arg1_1: "bf16[24576, 512][512, 1]"):
         # File: /home/amily/iree-turbine/iree/turbine/kernel/boo/op_exports/aten.py:97 in forward, code: return func(*args, **kwargs)
        mm: "bf16[512, 512][512, 1]" = torch.ops.aten.mm.default(arg0_1, arg1_1);  arg0_1 = arg1_1 = None
        return (mm,)
        
DEBUG 02-12 15:49:50 [subgraph.py:98] pre-sort node_list: [mm]
DEBUG 02-12 15:49:50 [subgraph.py:100] post-sort node_list: [mm]
DEBUG 02-12 15:49:50 [apply.py:119] Decomposed module:
class <lambda>(torch.nn.Module):
    def forward(self, arg0_1: "bf16[512, 24576][1, 512]", arg1_1: "bf16[24576, 512][512, 1]"):
        # No stacktrace found for following nodes
        mm: "bf16[512, 512][512, 1]" = torch.ops.aten.mm.default(arg0_1, arg1_1);  arg0_1 = arg1_1 = None
        return (mm,)
        
DEBUG 02-12 15:49:50 [graph.py:271] Got hash str 'df7ad535eac8aab24427c7b905f3a68518a1aa87' for GraphModule: 
 class GraphModule(torch.nn.Module):
    def forward(self, arg0_1_boo: "bf16[24576, 512][512, 1]", arg1_1: "bf16[24576, 512][512, 1]"):
        # No stacktrace found for following nodes
        permute_default: "bf16[512, 24576][1, 512]" = torch.ops.aten.permute.default(arg0_1_boo, [1, 0]);  arg0_1_boo = None
        mm: "bf16[512, 512][512, 1]" = torch.ops.aten.mm.default(permute_default, arg1_1);  permute_default = arg1_1 = None
        return (mm,)
        
DEBUG 02-12 15:49:50 [apply.py:119] Post-fusion module:
class <lambda>(torch.nn.Module):
    def forward(self, arg0_1: "bf16[512, 24576][1, 512]", arg1_1: "bf16[24576, 512][512, 1]"):
         # File: /home/amily/iree-turbine/iree/turbine/kernel/boo/op_exports/aten.py:97 in forward, code: return func(*args, **kwargs)
        fused_op_mm_df7ad535eac8aab24427c7b905f3a68518a1aa87_24576x512xbfloat16_24576x512xbfloat16: "bf16[512, 512][512, 1]" = torch.ops.boo.fused_op_mm_df7ad535eac8aab24427c7b905f3a68518a1aa87_24576x512xbfloat16_24576x512xbfloat16(arg0_1, arg1_1);  arg0_1 = arg1_1 = None
        return (fused_op_mm_df7ad535eac8aab24427c7b905f3a68518a1aa87_24576x512xbfloat16_24576x512xbfloat16,)
        
DEBUG 02-12 15:49:50 [launch.py:345] Saving newly generated mlir file to /home/amily/iree-turbine/iree/turbine/kernel/boo/driver/dump2/fused_op_mm_df7ad535eac8aab24427c7b905f3a68518a1aa87_24576x512xbfloat16_24576x512xbfloat16/fused_op_mm_df7ad535eac8aab24427c7b905f3a68518a1aa87_24576x512xbfloat16_24576x512xbfloat16.mlir
DEBUG 02-12 15:49:50 [launch.py:218] Compiling vmfb to cache: /home/amily/iree-turbine/iree/turbine/kernel/boo/driver/dump2/fused_op_mm_df7ad535eac8aab24427c7b905f3a68518a1aa87_24576x512xbfloat16_24576x512xbfloat16/0831dbe5d0cf8f642aba5b8358bd979a07b4bf39.vmfb
DEBUG 02-12 15:49:51 [launch.py:193] Cached new module for hip:--iree-hal-target-backends=rocm;--iree-hip-target=mi300x
DEBUG 02-12 15:49:51 [launch.py:148] Cached new binary for hip:1:0
DEBUG 02-12 15:49:51 [launch.py:171] Launching cached binary for hip:1:0
DEBUG 02-12 15:49:51 [apply.py:119] Source module:
class <lambda>(torch.nn.Module):
    def forward(self, arg0_1: "bf16[24576, 2048][2048, 1]", arg1_1: "bf16[2048, 1536][1536, 1]"):
         # File: /home/amily/iree-turbine/iree/turbine/kernel/boo/op_exports/aten.py:97 in forward, code: return func(*args, **kwargs)
        mm: "bf16[24576, 1536][1536, 1]" = torch.ops.aten.mm.default(arg0_1, arg1_1);  arg0_1 = arg1_1 = None
        return (mm,)
        
DEBUG 02-12 15:49:51 [subgraph.py:98] pre-sort node_list: [mm]
DEBUG 02-12 15:49:51 [subgraph.py:100] post-sort node_list: [mm]
DEBUG 02-12 15:49:51 [apply.py:119] Decomposed module:
class <lambda>(torch.nn.Module):
    def forward(self, arg0_1: "bf16[24576, 2048][2048, 1]", arg1_1: "bf16[2048, 1536][1536, 1]"):
        # No stacktrace found for following nodes
        mm: "bf16[24576, 1536][1536, 1]" = torch.ops.aten.mm.default(arg0_1, arg1_1);  arg0_1 = arg1_1 = None
        return (mm,)
        
DEBUG 02-12 15:49:51 [graph.py:271] Got hash str '08aadd4269f6e706ba7a8a61d5b6606bbdf0277e' for GraphModule: 
 class GraphModule(torch.nn.Module):
    def forward(self, arg0_1: "bf16[24576, 2048][2048, 1]", arg1_1: "bf16[2048, 1536][1536, 1]"):
        # No stacktrace found for following nodes
        mm: "bf16[24576, 1536][1536, 1]" = torch.ops.aten.mm.default(arg0_1, arg1_1);  arg0_1 = arg1_1 = None
        return (mm,)
        
DEBUG 02-12 15:49:51 [apply.py:119] Post-fusion module:
class <lambda>(torch.nn.Module):
    def forward(self, arg0_1: "bf16[24576, 2048][2048, 1]", arg1_1: "bf16[2048, 1536][1536, 1]"):
         # File: /home/amily/iree-turbine/iree/turbine/kernel/boo/op_exports/aten.py:97 in forward, code: return func(*args, **kwargs)
        fused_op_mm_08aadd4269f6e706ba7a8a61d5b6606bbdf0277e_24576x2048xbfloat16_2048x1536xbfloat16: "bf16[24576, 1536][1536, 1]" = torch.ops.boo.fused_op_mm_08aadd4269f6e706ba7a8a61d5b6606bbdf0277e_24576x2048xbfloat16_2048x1536xbfloat16(arg0_1, arg1_1);  arg0_1 = arg1_1 = None
        return (fused_op_mm_08aadd4269f6e706ba7a8a61d5b6606bbdf0277e_24576x2048xbfloat16_2048x1536xbfloat16,)
        
DEBUG 02-12 15:49:51 [launch.py:345] Saving newly generated mlir file to /home/amily/iree-turbine/iree/turbine/kernel/boo/driver/dump2/fused_op_mm_08aadd4269f6e706ba7a8a61d5b6606bbdf0277e_24576x2048xbfloat16_2048x1536xbfloat16/fused_op_mm_08aadd4269f6e706ba7a8a61d5b6606bbdf0277e_24576x2048xbfloat16_2048x1536xbfloat16.mlir
DEBUG 02-12 15:49:51 [launch.py:218] Compiling vmfb to cache: /home/amily/iree-turbine/iree/turbine/kernel/boo/driver/dump2/fused_op_mm_08aadd4269f6e706ba7a8a61d5b6606bbdf0277e_24576x2048xbfloat16_2048x1536xbfloat16/0831dbe5d0cf8f642aba5b8358bd979a07b4bf39.vmfb
DEBUG 02-12 15:49:52 [launch.py:193] Cached new module for hip:--iree-hal-target-backends=rocm;--iree-hip-target=mi300x
DEBUG 02-12 15:49:52 [launch.py:148] Cached new binary for hip:1:0
DEBUG 02-12 15:49:52 [launch.py:171] Launching cached binary for hip:1:0
DEBUG 02-12 15:49:52 [apply.py:119] Source module:
class <lambda>(torch.nn.Module):
    def forward(self, arg0_1: "bf16[24576, 1536][1536, 1]", arg1_1: "bf16[1536, 2048][1, 1536]"):
         # File: /home/amily/iree-turbine/iree/turbine/kernel/boo/op_exports/aten.py:97 in forward, code: return func(*args, **kwargs)
        mm: "bf16[24576, 2048][2048, 1]" = torch.ops.aten.mm.default(arg0_1, arg1_1);  arg0_1 = arg1_1 = None
        return (mm,)
        
DEBUG 02-12 15:49:52 [subgraph.py:98] pre-sort node_list: [mm]
DEBUG 02-12 15:49:52 [subgraph.py:100] post-sort node_list: [mm]
DEBUG 02-12 15:49:52 [apply.py:119] Decomposed module:
class <lambda>(torch.nn.Module):
    def forward(self, arg0_1: "bf16[24576, 1536][1536, 1]", arg1_1: "bf16[1536, 2048][1, 1536]"):
        # No stacktrace found for following nodes
        mm: "bf16[24576, 2048][2048, 1]" = torch.ops.aten.mm.default(arg0_1, arg1_1);  arg0_1 = arg1_1 = None
        return (mm,)
        
DEBUG 02-12 15:49:52 [graph.py:271] Got hash str 'b7918512a176ca52ddc6edd6361ab6aeb28de685' for GraphModule: 
 class GraphModule(torch.nn.Module):
    def forward(self, arg0_1: "bf16[24576, 1536][1536, 1]", arg1_1_boo: "bf16[2048, 1536][1536, 1]"):
        # No stacktrace found for following nodes
        permute_default: "bf16[1536, 2048][1, 1536]" = torch.ops.aten.permute.default(arg1_1_boo, [1, 0]);  arg1_1_boo = None
        mm: "bf16[24576, 2048][2048, 1]" = torch.ops.aten.mm.default(arg0_1, permute_default);  arg0_1 = permute_default = None
        return (mm,)
        
DEBUG 02-12 15:49:52 [apply.py:119] Post-fusion module:
class <lambda>(torch.nn.Module):
    def forward(self, arg0_1: "bf16[24576, 1536][1536, 1]", arg1_1: "bf16[1536, 2048][1, 1536]"):
         # File: /home/amily/iree-turbine/iree/turbine/kernel/boo/op_exports/aten.py:97 in forward, code: return func(*args, **kwargs)
        fused_op_mm_b7918512a176ca52ddc6edd6361ab6aeb28de685_24576x1536xbfloat16_2048x1536xbfloat16: "bf16[24576, 2048][2048, 1]" = torch.ops.boo.fused_op_mm_b7918512a176ca52ddc6edd6361ab6aeb28de685_24576x1536xbfloat16_2048x1536xbfloat16(arg0_1, arg1_1);  arg0_1 = arg1_1 = None
        return (fused_op_mm_b7918512a176ca52ddc6edd6361ab6aeb28de685_24576x1536xbfloat16_2048x1536xbfloat16,)
        
DEBUG 02-12 15:49:52 [launch.py:345] Saving newly generated mlir file to /home/amily/iree-turbine/iree/turbine/kernel/boo/driver/dump2/fused_op_mm_b7918512a176ca52ddc6edd6361ab6aeb28de685_24576x1536xbfloat16_2048x1536xbfloat16/fused_op_mm_b7918512a176ca52ddc6edd6361ab6aeb28de685_24576x1536xbfloat16_2048x1536xbfloat16.mlir
DEBUG 02-12 15:49:52 [launch.py:218] Compiling vmfb to cache: /home/amily/iree-turbine/iree/turbine/kernel/boo/driver/dump2/fused_op_mm_b7918512a176ca52ddc6edd6361ab6aeb28de685_24576x1536xbfloat16_2048x1536xbfloat16/0831dbe5d0cf8f642aba5b8358bd979a07b4bf39.vmfb
DEBUG 02-12 15:49:52 [launch.py:193] Cached new module for hip:--iree-hal-target-backends=rocm;--iree-hip-target=mi300x
DEBUG 02-12 15:49:52 [launch.py:148] Cached new binary for hip:1:0
DEBUG 02-12 15:49:52 [launch.py:171] Launching cached binary for hip:1:0
DEBUG 02-12 15:49:53 [apply.py:119] Source module:
class <lambda>(torch.nn.Module):
    def forward(self, arg0_1: "bf16[512][1]", arg1_1: "bf16[24576, 512][512, 1]", arg2_1: "bf16[512, 512][1, 512]"):
         # File: /home/amily/iree-turbine/iree/turbine/kernel/boo/op_exports/aten.py:97 in forward, code: return func(*args, **kwargs)
        addmm: "bf16[24576, 512][512, 1]" = torch.ops.aten.addmm.default(arg0_1, arg1_1, arg2_1);  arg0_1 = arg1_1 = arg2_1 = None
        return (addmm,)
        
DEBUG 02-12 15:49:53 [subgraph.py:98] pre-sort node_list: [addmm]
DEBUG 02-12 15:49:53 [subgraph.py:100] post-sort node_list: [addmm]
DEBUG 02-12 15:49:53 [apply.py:119] Decomposed module:
class <lambda>(torch.nn.Module):
    def forward(self, arg0_1: "bf16[512][1]", arg1_1: "bf16[24576, 512][512, 1]", arg2_1: "bf16[512, 512][1, 512]"):
        # No stacktrace found for following nodes
        convert_element_type: "f32[512][1]" = torch.ops.prims.convert_element_type.default(arg0_1, torch.float32);  arg0_1 = None
        convert_element_type_1: "f32[24576, 512][512, 1]" = torch.ops.prims.convert_element_type.default(arg1_1, torch.float32);  arg1_1 = None
        convert_element_type_2: "f32[512, 512][1, 512]" = torch.ops.prims.convert_element_type.default(arg2_1, torch.float32);  arg2_1 = None
        mm: "f32[24576, 512][512, 1]" = torch.ops.aten.mm.default(convert_element_type_1, convert_element_type_2);  convert_element_type_1 = convert_element_type_2 = None
        mul: "f32[24576, 512][512, 1]" = torch.ops.aten.mul.Tensor(mm, 1);  mm = None
        mul_1: "f32[512][1]" = torch.ops.aten.mul.Tensor(convert_element_type, 1);  convert_element_type = None
        add: "f32[24576, 512][512, 1]" = torch.ops.aten.add.Tensor(mul, mul_1);  mul = mul_1 = None
        convert_element_type_3: "bf16[24576, 512][512, 1]" = torch.ops.prims.convert_element_type.default(add, torch.bfloat16);  add = None
        return (convert_element_type_3,)
        
DEBUG 02-12 15:49:53 [graph.py:271] Got hash str 'bd1b24beac540bdfac66ebdd2a23d60cd9da9854' for GraphModule: 
 class GraphModule(torch.nn.Module):
    def forward(self, arg0_1: "bf16[512][1]", arg1_1: "bf16[24576, 512][512, 1]", arg2_1_boo: "bf16[512, 512][512, 1]"):
        # No stacktrace found for following nodes
        permute_default: "bf16[512, 512][1, 512]" = torch.ops.aten.permute.default(arg2_1_boo, [1, 0]);  arg2_1_boo = None
        convert_element_type: "f32[512][1]" = torch.ops.prims.convert_element_type.default(arg0_1, torch.float32);  arg0_1 = None
        convert_element_type_1: "f32[24576, 512][512, 1]" = torch.ops.prims.convert_element_type.default(arg1_1, torch.float32);  arg1_1 = None
        convert_element_type_2: "f32[512, 512][1, 512]" = torch.ops.prims.convert_element_type.default(permute_default, torch.float32);  permute_default = None
        mm: "f32[24576, 512][512, 1]" = torch.ops.aten.mm.default(convert_element_type_1, convert_element_type_2);  convert_element_type_1 = convert_element_type_2 = None
        mul: "f32[24576, 512][512, 1]" = torch.ops.aten.mul.Tensor(mm, 1);  mm = None
        mul_1: "f32[512][1]" = torch.ops.aten.mul.Tensor(convert_element_type, 1);  convert_element_type = None
        add: "f32[24576, 512][512, 1]" = torch.ops.aten.add.Tensor(mul, mul_1);  mul = mul_1 = None
        convert_element_type_3: "bf16[24576, 512][512, 1]" = torch.ops.prims.convert_element_type.default(add, torch.bfloat16);  add = None
        return (convert_element_type_3,)
        
DEBUG 02-12 15:49:53 [apply.py:119] Post-fusion module:
class <lambda>(torch.nn.Module):
    def forward(self, arg0_1: "bf16[512][1]", arg1_1: "bf16[24576, 512][512, 1]", arg2_1: "bf16[512, 512][1, 512]"):
         # File: /home/amily/iree-turbine/iree/turbine/kernel/boo/op_exports/aten.py:97 in forward, code: return func(*args, **kwargs)
        fused_op_convert_el_convert_el_convert_el_mm_mul_mul_1_add_convert_el_bd1b24beac540bdfac66ebdd2a23d60cd9da9854_512xbfloat16_24576x512xbfloat16_512x512xbfloat16: "bf16[24576, 512][512, 1]" = torch.ops.boo.fused_op_convert_el_convert_el_convert_el_mm_mul_mul_1_add_convert_el_bd1b24beac540bdfac66ebdd2a23d60cd9da9854_512xbfloat16_24576x512xbfloat16_512x512xbfloat16(arg0_1, arg1_1, arg2_1);  arg0_1 = arg1_1 = arg2_1 = None
        return (fused_op_convert_el_convert_el_convert_el_mm_mul_mul_1_add_convert_el_bd1b24beac540bdfac66ebdd2a23d60cd9da9854_512xbfloat16_24576x512xbfloat16_512x512xbfloat16,)
        
DEBUG 02-12 15:49:53 [launch.py:345] Saving newly generated mlir file to /home/amily/iree-turbine/iree/turbine/kernel/boo/driver/dump2/fused_op_convert_el_convert_el_convert_el_mm_mul_mul_1_add_convert_el_bd1b24beac540bdfac66ebdd2a23d60cd9da9854_512xbfloat16_24576x512xbfloat16_512x512xbfloat16/fused_op_convert_el_convert_el_convert_el_mm_mul_mul_1_add_convert_el_bd1b24beac540bdfac66ebdd2a23d60cd9da9854_512xbfloat16_24576x512xbfloat16_512x512xbfloat16.mlir
DEBUG 02-12 15:49:53 [launch.py:218] Compiling vmfb to cache: /home/amily/iree-turbine/iree/turbine/kernel/boo/driver/dump2/fused_op_convert_el_convert_el_convert_el_mm_mul_mul_1_add_convert_el_bd1b24beac540bdfac66ebdd2a23d60cd9da9854_512xbfloat16_24576x512xbfloat16_512x512xbfloat16/0831dbe5d0cf8f642aba5b8358bd979a07b4bf39.vmfb
DEBUG 02-12 15:49:53 [launch.py:193] Cached new module for hip:--iree-hal-target-backends=rocm;--iree-hip-target=mi300x
DEBUG 02-12 15:49:53 [launch.py:148] Cached new binary for hip:1:0
DEBUG 02-12 15:49:53 [launch.py:171] Launching cached binary for hip:1:0
DEBUG 02-12 15:49:53 [apply.py:119] Source module:
class <lambda>(torch.nn.Module):
    def forward(self, arg0_1: "bf16[24576, 512][512, 1]", arg1_1: "bf16[512, 512][512, 1]"):
         # File: /home/amily/iree-turbine/iree/turbine/kernel/boo/op_exports/aten.py:97 in forward, code: return func(*args, **kwargs)
        mm: "bf16[24576, 512][512, 1]" = torch.ops.aten.mm.default(arg0_1, arg1_1);  arg0_1 = arg1_1 = None
        return (mm,)
        
DEBUG 02-12 15:49:53 [subgraph.py:98] pre-sort node_list: [mm]
DEBUG 02-12 15:49:53 [subgraph.py:100] post-sort node_list: [mm]
DEBUG 02-12 15:49:53 [apply.py:119] Decomposed module:
class <lambda>(torch.nn.Module):
    def forward(self, arg0_1: "bf16[24576, 512][512, 1]", arg1_1: "bf16[512, 512][512, 1]"):
        # No stacktrace found for following nodes
        mm: "bf16[24576, 512][512, 1]" = torch.ops.aten.mm.default(arg0_1, arg1_1);  arg0_1 = arg1_1 = None
        return (mm,)
        
DEBUG 02-12 15:49:53 [graph.py:271] Got hash str 'e1cc357a6bfddbbab8376068d9ebb155049bcc70' for GraphModule: 
 class GraphModule(torch.nn.Module):
    def forward(self, arg0_1: "bf16[24576, 512][512, 1]", arg1_1: "bf16[512, 512][512, 1]"):
        # No stacktrace found for following nodes
        mm: "bf16[24576, 512][512, 1]" = torch.ops.aten.mm.default(arg0_1, arg1_1);  arg0_1 = arg1_1 = None
        return (mm,)
        
DEBUG 02-12 15:49:53 [apply.py:119] Post-fusion module:
class <lambda>(torch.nn.Module):
    def forward(self, arg0_1: "bf16[24576, 512][512, 1]", arg1_1: "bf16[512, 512][512, 1]"):
         # File: /home/amily/iree-turbine/iree/turbine/kernel/boo/op_exports/aten.py:97 in forward, code: return func(*args, **kwargs)
        fused_op_mm_e1cc357a6bfddbbab8376068d9ebb155049bcc70_24576x512xbfloat16_512x512xbfloat16: "bf16[24576, 512][512, 1]" = torch.ops.boo.fused_op_mm_e1cc357a6bfddbbab8376068d9ebb155049bcc70_24576x512xbfloat16_512x512xbfloat16(arg0_1, arg1_1);  arg0_1 = arg1_1 = None
        return (fused_op_mm_e1cc357a6bfddbbab8376068d9ebb155049bcc70_24576x512xbfloat16_512x512xbfloat16,)
        
DEBUG 02-12 15:49:53 [launch.py:345] Saving newly generated mlir file to /home/amily/iree-turbine/iree/turbine/kernel/boo/driver/dump2/fused_op_mm_e1cc357a6bfddbbab8376068d9ebb155049bcc70_24576x512xbfloat16_512x512xbfloat16/fused_op_mm_e1cc357a6bfddbbab8376068d9ebb155049bcc70_24576x512xbfloat16_512x512xbfloat16.mlir
DEBUG 02-12 15:49:53 [launch.py:218] Compiling vmfb to cache: /home/amily/iree-turbine/iree/turbine/kernel/boo/driver/dump2/fused_op_mm_e1cc357a6bfddbbab8376068d9ebb155049bcc70_24576x512xbfloat16_512x512xbfloat16/0831dbe5d0cf8f642aba5b8358bd979a07b4bf39.vmfb
DEBUG 02-12 15:49:54 [launch.py:193] Cached new module for hip:--iree-hal-target-backends=rocm;--iree-hip-target=mi300x
DEBUG 02-12 15:49:54 [launch.py:148] Cached new binary for hip:1:0
DEBUG 02-12 15:49:54 [launch.py:171] Launching cached binary for hip:1:0
DEBUG 02-12 15:49:54 [apply.py:119] Source module:
class <lambda>(torch.nn.Module):
    def forward(self, arg0_1: "bf16[2048, 24576][1, 2048]", arg1_1: "bf16[24576, 1536][1536, 1]"):
         # File: /home/amily/iree-turbine/iree/turbine/kernel/boo/op_exports/aten.py:97 in forward, code: return func(*args, **kwargs)
        mm: "bf16[2048, 1536][1536, 1]" = torch.ops.aten.mm.default(arg0_1, arg1_1);  arg0_1 = arg1_1 = None
        return (mm,)
        
DEBUG 02-12 15:49:54 [subgraph.py:98] pre-sort node_list: [mm]
DEBUG 02-12 15:49:54 [subgraph.py:100] post-sort node_list: [mm]
DEBUG 02-12 15:49:54 [apply.py:119] Decomposed module:
class <lambda>(torch.nn.Module):
    def forward(self, arg0_1: "bf16[2048, 24576][1, 2048]", arg1_1: "bf16[24576, 1536][1536, 1]"):
        # No stacktrace found for following nodes
        mm: "bf16[2048, 1536][1536, 1]" = torch.ops.aten.mm.default(arg0_1, arg1_1);  arg0_1 = arg1_1 = None
        return (mm,)
        
DEBUG 02-12 15:49:54 [graph.py:271] Got hash str '36c13bd10c7cf5203d16246e2317b0fb842c2377' for GraphModule: 
 class GraphModule(torch.nn.Module):
    def forward(self, arg0_1_boo: "bf16[24576, 2048][2048, 1]", arg1_1: "bf16[24576, 1536][1536, 1]"):
        # No stacktrace found for following nodes
        permute_default: "bf16[2048, 24576][1, 2048]" = torch.ops.aten.permute.default(arg0_1_boo, [1, 0]);  arg0_1_boo = None
        mm: "bf16[2048, 1536][1536, 1]" = torch.ops.aten.mm.default(permute_default, arg1_1);  permute_default = arg1_1 = None
        return (mm,)
        
DEBUG 02-12 15:49:54 [apply.py:119] Post-fusion module:
class <lambda>(torch.nn.Module):
    def forward(self, arg0_1: "bf16[2048, 24576][1, 2048]", arg1_1: "bf16[24576, 1536][1536, 1]"):
         # File: /home/amily/iree-turbine/iree/turbine/kernel/boo/op_exports/aten.py:97 in forward, code: return func(*args, **kwargs)
        fused_op_mm_36c13bd10c7cf5203d16246e2317b0fb842c2377_24576x2048xbfloat16_24576x1536xbfloat16: "bf16[2048, 1536][1536, 1]" = torch.ops.boo.fused_op_mm_36c13bd10c7cf5203d16246e2317b0fb842c2377_24576x2048xbfloat16_24576x1536xbfloat16(arg0_1, arg1_1);  arg0_1 = arg1_1 = None
        return (fused_op_mm_36c13bd10c7cf5203d16246e2317b0fb842c2377_24576x2048xbfloat16_24576x1536xbfloat16,)
        
DEBUG 02-12 15:49:54 [launch.py:345] Saving newly generated mlir file to /home/amily/iree-turbine/iree/turbine/kernel/boo/driver/dump2/fused_op_mm_36c13bd10c7cf5203d16246e2317b0fb842c2377_24576x2048xbfloat16_24576x1536xbfloat16/fused_op_mm_36c13bd10c7cf5203d16246e2317b0fb842c2377_24576x2048xbfloat16_24576x1536xbfloat16.mlir
DEBUG 02-12 15:49:54 [launch.py:218] Compiling vmfb to cache: /home/amily/iree-turbine/iree/turbine/kernel/boo/driver/dump2/fused_op_mm_36c13bd10c7cf5203d16246e2317b0fb842c2377_24576x2048xbfloat16_24576x1536xbfloat16/0831dbe5d0cf8f642aba5b8358bd979a07b4bf39.vmfb
DEBUG 02-12 15:49:55 [launch.py:193] Cached new module for hip:--iree-hal-target-backends=rocm;--iree-hip-target=mi300x
DEBUG 02-12 15:49:55 [launch.py:148] Cached new binary for hip:1:0
DEBUG 02-12 15:49:55 [launch.py:171] Launching cached binary for hip:1:0
DEBUG 02-12 15:49:55 [apply.py:119] Source module:
class <lambda>(torch.nn.Module):
    def forward(self, arg0_1: "bf16[4112, 2048][2048, 1]", arg1_1: "bf16[2048, 8192][8192, 1]"):
         # File: /home/amily/iree-turbine/iree/turbine/kernel/boo/op_exports/aten.py:97 in forward, code: return func(*args, **kwargs)
        mm: "bf16[4112, 8192][8192, 1]" = torch.ops.aten.mm.default(arg0_1, arg1_1);  arg0_1 = arg1_1 = None
        return (mm,)
        
DEBUG 02-12 15:49:55 [subgraph.py:98] pre-sort node_list: [mm]
DEBUG 02-12 15:49:55 [subgraph.py:100] post-sort node_list: [mm]
DEBUG 02-12 15:49:55 [apply.py:119] Decomposed module:
class <lambda>(torch.nn.Module):
    def forward(self, arg0_1: "bf16[4112, 2048][2048, 1]", arg1_1: "bf16[2048, 8192][8192, 1]"):
        # No stacktrace found for following nodes
        mm: "bf16[4112, 8192][8192, 1]" = torch.ops.aten.mm.default(arg0_1, arg1_1);  arg0_1 = arg1_1 = None
        return (mm,)
        
DEBUG 02-12 15:49:55 [graph.py:271] Got hash str '6c3244b7ab8b444a2c8d6561764827054787f5de' for GraphModule: 
 class GraphModule(torch.nn.Module):
    def forward(self, arg0_1: "bf16[4112, 2048][2048, 1]", arg1_1: "bf16[2048, 8192][8192, 1]"):
        # No stacktrace found for following nodes
        mm: "bf16[4112, 8192][8192, 1]" = torch.ops.aten.mm.default(arg0_1, arg1_1);  arg0_1 = arg1_1 = None
        return (mm,)
        
DEBUG 02-12 15:49:55 [apply.py:119] Post-fusion module:
class <lambda>(torch.nn.Module):
    def forward(self, arg0_1: "bf16[4112, 2048][2048, 1]", arg1_1: "bf16[2048, 8192][8192, 1]"):
         # File: /home/amily/iree-turbine/iree/turbine/kernel/boo/op_exports/aten.py:97 in forward, code: return func(*args, **kwargs)
        fused_op_mm_6c3244b7ab8b444a2c8d6561764827054787f5de_4112x2048xbfloat16_2048x8192xbfloat16: "bf16[4112, 8192][8192, 1]" = torch.ops.boo.fused_op_mm_6c3244b7ab8b444a2c8d6561764827054787f5de_4112x2048xbfloat16_2048x8192xbfloat16(arg0_1, arg1_1);  arg0_1 = arg1_1 = None
        return (fused_op_mm_6c3244b7ab8b444a2c8d6561764827054787f5de_4112x2048xbfloat16_2048x8192xbfloat16,)
        
DEBUG 02-12 15:49:55 [launch.py:345] Saving newly generated mlir file to /home/amily/iree-turbine/iree/turbine/kernel/boo/driver/dump2/fused_op_mm_6c3244b7ab8b444a2c8d6561764827054787f5de_4112x2048xbfloat16_2048x8192xbfloat16/fused_op_mm_6c3244b7ab8b444a2c8d6561764827054787f5de_4112x2048xbfloat16_2048x8192xbfloat16.mlir
DEBUG 02-12 15:49:55 [launch.py:218] Compiling vmfb to cache: /home/amily/iree-turbine/iree/turbine/kernel/boo/driver/dump2/fused_op_mm_6c3244b7ab8b444a2c8d6561764827054787f5de_4112x2048xbfloat16_2048x8192xbfloat16/0831dbe5d0cf8f642aba5b8358bd979a07b4bf39.vmfb
DEBUG 02-12 15:49:56 [launch.py:193] Cached new module for hip:--iree-hal-target-backends=rocm;--iree-hip-target=mi300x
DEBUG 02-12 15:49:56 [launch.py:148] Cached new binary for hip:1:0
DEBUG 02-12 15:49:56 [launch.py:171] Launching cached binary for hip:1:0
DEBUG 02-12 15:49:56 [apply.py:119] Source module:
class <lambda>(torch.nn.Module):
    def forward(self, arg0_1: "bf16[2048, 4112][1, 2048]", arg1_1: "bf16[4112, 8192][8192, 1]"):
         # File: /home/amily/iree-turbine/iree/turbine/kernel/boo/op_exports/aten.py:97 in forward, code: return func(*args, **kwargs)
        mm: "bf16[2048, 8192][8192, 1]" = torch.ops.aten.mm.default(arg0_1, arg1_1);  arg0_1 = arg1_1 = None
        return (mm,)
        
DEBUG 02-12 15:49:56 [subgraph.py:98] pre-sort node_list: [mm]
DEBUG 02-12 15:49:56 [subgraph.py:100] post-sort node_list: [mm]
DEBUG 02-12 15:49:56 [apply.py:119] Decomposed module:
class <lambda>(torch.nn.Module):
    def forward(self, arg0_1: "bf16[2048, 4112][1, 2048]", arg1_1: "bf16[4112, 8192][8192, 1]"):
        # No stacktrace found for following nodes
        mm: "bf16[2048, 8192][8192, 1]" = torch.ops.aten.mm.default(arg0_1, arg1_1);  arg0_1 = arg1_1 = None
        return (mm,)
        
DEBUG 02-12 15:49:56 [graph.py:271] Got hash str '61526b2842a4ce8bcb032dd1bdb8cfefcf663053' for GraphModule: 
 class GraphModule(torch.nn.Module):
    def forward(self, arg0_1_boo: "bf16[4112, 2048][2048, 1]", arg1_1: "bf16[4112, 8192][8192, 1]"):
        # No stacktrace found for following nodes
        permute_default: "bf16[2048, 4112][1, 2048]" = torch.ops.aten.permute.default(arg0_1_boo, [1, 0]);  arg0_1_boo = None
        mm: "bf16[2048, 8192][8192, 1]" = torch.ops.aten.mm.default(permute_default, arg1_1);  permute_default = arg1_1 = None
        return (mm,)
        
DEBUG 02-12 15:49:56 [apply.py:119] Post-fusion module:
class <lambda>(torch.nn.Module):
    def forward(self, arg0_1: "bf16[2048, 4112][1, 2048]", arg1_1: "bf16[4112, 8192][8192, 1]"):
         # File: /home/amily/iree-turbine/iree/turbine/kernel/boo/op_exports/aten.py:97 in forward, code: return func(*args, **kwargs)
        fused_op_mm_61526b2842a4ce8bcb032dd1bdb8cfefcf663053_4112x2048xbfloat16_4112x8192xbfloat16: "bf16[2048, 8192][8192, 1]" = torch.ops.boo.fused_op_mm_61526b2842a4ce8bcb032dd1bdb8cfefcf663053_4112x2048xbfloat16_4112x8192xbfloat16(arg0_1, arg1_1);  arg0_1 = arg1_1 = None
        return (fused_op_mm_61526b2842a4ce8bcb032dd1bdb8cfefcf663053_4112x2048xbfloat16_4112x8192xbfloat16,)
        
DEBUG 02-12 15:49:56 [launch.py:345] Saving newly generated mlir file to /home/amily/iree-turbine/iree/turbine/kernel/boo/driver/dump2/fused_op_mm_61526b2842a4ce8bcb032dd1bdb8cfefcf663053_4112x2048xbfloat16_4112x8192xbfloat16/fused_op_mm_61526b2842a4ce8bcb032dd1bdb8cfefcf663053_4112x2048xbfloat16_4112x8192xbfloat16.mlir
DEBUG 02-12 15:49:56 [launch.py:218] Compiling vmfb to cache: /home/amily/iree-turbine/iree/turbine/kernel/boo/driver/dump2/fused_op_mm_61526b2842a4ce8bcb032dd1bdb8cfefcf663053_4112x2048xbfloat16_4112x8192xbfloat16/0831dbe5d0cf8f642aba5b8358bd979a07b4bf39.vmfb
DEBUG 02-12 15:49:57 [launch.py:193] Cached new module for hip:--iree-hal-target-backends=rocm;--iree-hip-target=mi300x
DEBUG 02-12 15:49:57 [launch.py:148] Cached new binary for hip:1:0
DEBUG 02-12 15:49:57 [launch.py:171] Launching cached binary for hip:1:0
DEBUG 02-12 15:49:57 [apply.py:119] Source module:
class <lambda>(torch.nn.Module):
    def forward(self, arg0_1: "bf16[8192, 4112][1, 8192]", arg1_1: "bf16[4112, 2048][2048, 1]"):
         # File: /home/amily/iree-turbine/iree/turbine/kernel/boo/op_exports/aten.py:97 in forward, code: return func(*args, **kwargs)
        mm: "bf16[8192, 2048][2048, 1]" = torch.ops.aten.mm.default(arg0_1, arg1_1);  arg0_1 = arg1_1 = None
        return (mm,)
        
DEBUG 02-12 15:49:57 [subgraph.py:98] pre-sort node_list: [mm]
DEBUG 02-12 15:49:57 [subgraph.py:100] post-sort node_list: [mm]
DEBUG 02-12 15:49:57 [apply.py:119] Decomposed module:
class <lambda>(torch.nn.Module):
    def forward(self, arg0_1: "bf16[8192, 4112][1, 8192]", arg1_1: "bf16[4112, 2048][2048, 1]"):
        # No stacktrace found for following nodes
        mm: "bf16[8192, 2048][2048, 1]" = torch.ops.aten.mm.default(arg0_1, arg1_1);  arg0_1 = arg1_1 = None
        return (mm,)
        
DEBUG 02-12 15:49:57 [graph.py:271] Got hash str '30fb13ca54bad673af6a17af15544e136318cef7' for GraphModule: 
 class GraphModule(torch.nn.Module):
    def forward(self, arg0_1_boo: "bf16[4112, 8192][8192, 1]", arg1_1: "bf16[4112, 2048][2048, 1]"):
        # No stacktrace found for following nodes
        permute_default: "bf16[8192, 4112][1, 8192]" = torch.ops.aten.permute.default(arg0_1_boo, [1, 0]);  arg0_1_boo = None
        mm: "bf16[8192, 2048][2048, 1]" = torch.ops.aten.mm.default(permute_default, arg1_1);  permute_default = arg1_1 = None
        return (mm,)
        
DEBUG 02-12 15:49:57 [apply.py:119] Post-fusion module:
class <lambda>(torch.nn.Module):
    def forward(self, arg0_1: "bf16[8192, 4112][1, 8192]", arg1_1: "bf16[4112, 2048][2048, 1]"):
         # File: /home/amily/iree-turbine/iree/turbine/kernel/boo/op_exports/aten.py:97 in forward, code: return func(*args, **kwargs)
        fused_op_mm_30fb13ca54bad673af6a17af15544e136318cef7_4112x8192xbfloat16_4112x2048xbfloat16: "bf16[8192, 2048][2048, 1]" = torch.ops.boo.fused_op_mm_30fb13ca54bad673af6a17af15544e136318cef7_4112x8192xbfloat16_4112x2048xbfloat16(arg0_1, arg1_1);  arg0_1 = arg1_1 = None
        return (fused_op_mm_30fb13ca54bad673af6a17af15544e136318cef7_4112x8192xbfloat16_4112x2048xbfloat16,)
        
DEBUG 02-12 15:49:57 [launch.py:345] Saving newly generated mlir file to /home/amily/iree-turbine/iree/turbine/kernel/boo/driver/dump2/fused_op_mm_30fb13ca54bad673af6a17af15544e136318cef7_4112x8192xbfloat16_4112x2048xbfloat16/fused_op_mm_30fb13ca54bad673af6a17af15544e136318cef7_4112x8192xbfloat16_4112x2048xbfloat16.mlir
DEBUG 02-12 15:49:57 [launch.py:218] Compiling vmfb to cache: /home/amily/iree-turbine/iree/turbine/kernel/boo/driver/dump2/fused_op_mm_30fb13ca54bad673af6a17af15544e136318cef7_4112x8192xbfloat16_4112x2048xbfloat16/0831dbe5d0cf8f642aba5b8358bd979a07b4bf39.vmfb
DEBUG 02-12 15:49:57 [launch.py:193] Cached new module for hip:--iree-hal-target-backends=rocm;--iree-hip-target=mi300x
DEBUG 02-12 15:49:57 [launch.py:148] Cached new binary for hip:1:0
DEBUG 02-12 15:49:57 [launch.py:171] Launching cached binary for hip:1:0
DEBUG 02-12 15:49:58 [apply.py:119] Source module:
class <lambda>(torch.nn.Module):
    def forward(self, arg0_1: "bf16[4112, 8192][8192, 1]", arg1_1: "bf16[8192, 2048][1, 8192]"):
         # File: /home/amily/iree-turbine/iree/turbine/kernel/boo/op_exports/aten.py:97 in forward, code: return func(*args, **kwargs)
        mm: "bf16[4112, 2048][2048, 1]" = torch.ops.aten.mm.default(arg0_1, arg1_1);  arg0_1 = arg1_1 = None
        return (mm,)
        
DEBUG 02-12 15:49:58 [subgraph.py:98] pre-sort node_list: [mm]
DEBUG 02-12 15:49:58 [subgraph.py:100] post-sort node_list: [mm]
DEBUG 02-12 15:49:58 [apply.py:119] Decomposed module:
class <lambda>(torch.nn.Module):
    def forward(self, arg0_1: "bf16[4112, 8192][8192, 1]", arg1_1: "bf16[8192, 2048][1, 8192]"):
        # No stacktrace found for following nodes
        mm: "bf16[4112, 2048][2048, 1]" = torch.ops.aten.mm.default(arg0_1, arg1_1);  arg0_1 = arg1_1 = None
        return (mm,)
        
DEBUG 02-12 15:49:58 [graph.py:271] Got hash str '7fb15a929dc009f84f65e883e3d05935f010d193' for GraphModule: 
 class GraphModule(torch.nn.Module):
    def forward(self, arg0_1: "bf16[4112, 8192][8192, 1]", arg1_1_boo: "bf16[2048, 8192][8192, 1]"):
        # No stacktrace found for following nodes
        permute_default: "bf16[8192, 2048][1, 8192]" = torch.ops.aten.permute.default(arg1_1_boo, [1, 0]);  arg1_1_boo = None
        mm: "bf16[4112, 2048][2048, 1]" = torch.ops.aten.mm.default(arg0_1, permute_default);  arg0_1 = permute_default = None
        return (mm,)
        
DEBUG 02-12 15:49:58 [apply.py:119] Post-fusion module:
class <lambda>(torch.nn.Module):
    def forward(self, arg0_1: "bf16[4112, 8192][8192, 1]", arg1_1: "bf16[8192, 2048][1, 8192]"):
         # File: /home/amily/iree-turbine/iree/turbine/kernel/boo/op_exports/aten.py:97 in forward, code: return func(*args, **kwargs)
        fused_op_mm_7fb15a929dc009f84f65e883e3d05935f010d193_4112x8192xbfloat16_2048x8192xbfloat16: "bf16[4112, 2048][2048, 1]" = torch.ops.boo.fused_op_mm_7fb15a929dc009f84f65e883e3d05935f010d193_4112x8192xbfloat16_2048x8192xbfloat16(arg0_1, arg1_1);  arg0_1 = arg1_1 = None
        return (fused_op_mm_7fb15a929dc009f84f65e883e3d05935f010d193_4112x8192xbfloat16_2048x8192xbfloat16,)
        
DEBUG 02-12 15:49:58 [launch.py:345] Saving newly generated mlir file to /home/amily/iree-turbine/iree/turbine/kernel/boo/driver/dump2/fused_op_mm_7fb15a929dc009f84f65e883e3d05935f010d193_4112x8192xbfloat16_2048x8192xbfloat16/fused_op_mm_7fb15a929dc009f84f65e883e3d05935f010d193_4112x8192xbfloat16_2048x8192xbfloat16.mlir
DEBUG 02-12 15:49:58 [launch.py:218] Compiling vmfb to cache: /home/amily/iree-turbine/iree/turbine/kernel/boo/driver/dump2/fused_op_mm_7fb15a929dc009f84f65e883e3d05935f010d193_4112x8192xbfloat16_2048x8192xbfloat16/0831dbe5d0cf8f642aba5b8358bd979a07b4bf39.vmfb
DEBUG 02-12 15:49:58 [launch.py:193] Cached new module for hip:--iree-hal-target-backends=rocm;--iree-hip-target=mi300x
DEBUG 02-12 15:49:58 [launch.py:148] Cached new binary for hip:1:0
DEBUG 02-12 15:49:58 [launch.py:171] Launching cached binary for hip:1:0
DEBUG 02-12 15:49:58 [apply.py:119] Source module:
class <lambda>(torch.nn.Module):
    def forward(self, arg0_1: "bf16[24576, 512][512, 1]", arg1_1: "bf16[512, 2048][2048, 1]"):
         # File: /home/amily/iree-turbine/iree/turbine/kernel/boo/op_exports/aten.py:97 in forward, code: return func(*args, **kwargs)
        mm: "bf16[24576, 2048][2048, 1]" = torch.ops.aten.mm.default(arg0_1, arg1_1);  arg0_1 = arg1_1 = None
        return (mm,)
        
DEBUG 02-12 15:49:58 [subgraph.py:98] pre-sort node_list: [mm]
DEBUG 02-12 15:49:58 [subgraph.py:100] post-sort node_list: [mm]
DEBUG 02-12 15:49:58 [apply.py:119] Decomposed module:
class <lambda>(torch.nn.Module):
    def forward(self, arg0_1: "bf16[24576, 512][512, 1]", arg1_1: "bf16[512, 2048][2048, 1]"):
        # No stacktrace found for following nodes
        mm: "bf16[24576, 2048][2048, 1]" = torch.ops.aten.mm.default(arg0_1, arg1_1);  arg0_1 = arg1_1 = None
        return (mm,)
        
DEBUG 02-12 15:49:58 [graph.py:271] Got hash str 'a55123289a70f6abd28f3a20cd8a39c37fbfca31' for GraphModule: 
 class GraphModule(torch.nn.Module):
    def forward(self, arg0_1: "bf16[24576, 512][512, 1]", arg1_1: "bf16[512, 2048][2048, 1]"):
        # No stacktrace found for following nodes
        mm: "bf16[24576, 2048][2048, 1]" = torch.ops.aten.mm.default(arg0_1, arg1_1);  arg0_1 = arg1_1 = None
        return (mm,)
        
DEBUG 02-12 15:49:58 [apply.py:119] Post-fusion module:
class <lambda>(torch.nn.Module):
    def forward(self, arg0_1: "bf16[24576, 512][512, 1]", arg1_1: "bf16[512, 2048][2048, 1]"):
         # File: /home/amily/iree-turbine/iree/turbine/kernel/boo/op_exports/aten.py:97 in forward, code: return func(*args, **kwargs)
        fused_op_mm_a55123289a70f6abd28f3a20cd8a39c37fbfca31_24576x512xbfloat16_512x2048xbfloat16: "bf16[24576, 2048][2048, 1]" = torch.ops.boo.fused_op_mm_a55123289a70f6abd28f3a20cd8a39c37fbfca31_24576x512xbfloat16_512x2048xbfloat16(arg0_1, arg1_1);  arg0_1 = arg1_1 = None
        return (fused_op_mm_a55123289a70f6abd28f3a20cd8a39c37fbfca31_24576x512xbfloat16_512x2048xbfloat16,)
        
DEBUG 02-12 15:49:58 [launch.py:345] Saving newly generated mlir file to /home/amily/iree-turbine/iree/turbine/kernel/boo/driver/dump2/fused_op_mm_a55123289a70f6abd28f3a20cd8a39c37fbfca31_24576x512xbfloat16_512x2048xbfloat16/fused_op_mm_a55123289a70f6abd28f3a20cd8a39c37fbfca31_24576x512xbfloat16_512x2048xbfloat16.mlir
DEBUG 02-12 15:49:58 [launch.py:218] Compiling vmfb to cache: /home/amily/iree-turbine/iree/turbine/kernel/boo/driver/dump2/fused_op_mm_a55123289a70f6abd28f3a20cd8a39c37fbfca31_24576x512xbfloat16_512x2048xbfloat16/0831dbe5d0cf8f642aba5b8358bd979a07b4bf39.vmfb
DEBUG 02-12 15:49:59 [launch.py:193] Cached new module for hip:--iree-hal-target-backends=rocm;--iree-hip-target=mi300x
DEBUG 02-12 15:49:59 [launch.py:148] Cached new binary for hip:1:0
DEBUG 02-12 15:49:59 [launch.py:171] Launching cached binary for hip:1:0
DEBUG 02-12 15:49:59 [apply.py:119] Source module:
class <lambda>(torch.nn.Module):
    def forward(self, arg0_1: "bf16[4112, 8192][8192, 1]", arg1_1: "bf16[8192, 2048][2048, 1]"):
         # File: /home/amily/iree-turbine/iree/turbine/kernel/boo/op_exports/aten.py:97 in forward, code: return func(*args, **kwargs)
        mm: "bf16[4112, 2048][2048, 1]" = torch.ops.aten.mm.default(arg0_1, arg1_1);  arg0_1 = arg1_1 = None
        return (mm,)
        
DEBUG 02-12 15:49:59 [subgraph.py:98] pre-sort node_list: [mm]
DEBUG 02-12 15:49:59 [subgraph.py:100] post-sort node_list: [mm]
DEBUG 02-12 15:49:59 [apply.py:119] Decomposed module:
class <lambda>(torch.nn.Module):
    def forward(self, arg0_1: "bf16[4112, 8192][8192, 1]", arg1_1: "bf16[8192, 2048][2048, 1]"):
        # No stacktrace found for following nodes
        mm: "bf16[4112, 2048][2048, 1]" = torch.ops.aten.mm.default(arg0_1, arg1_1);  arg0_1 = arg1_1 = None
        return (mm,)
        
DEBUG 02-12 15:49:59 [graph.py:271] Got hash str '5902e7b3f2e5a4dfdc641807593e4ca6e591f540' for GraphModule: 
 class GraphModule(torch.nn.Module):
    def forward(self, arg0_1: "bf16[4112, 8192][8192, 1]", arg1_1: "bf16[8192, 2048][2048, 1]"):
        # No stacktrace found for following nodes
        mm: "bf16[4112, 2048][2048, 1]" = torch.ops.aten.mm.default(arg0_1, arg1_1);  arg0_1 = arg1_1 = None
        return (mm,)
        
DEBUG 02-12 15:49:59 [apply.py:119] Post-fusion module:
class <lambda>(torch.nn.Module):
    def forward(self, arg0_1: "bf16[4112, 8192][8192, 1]", arg1_1: "bf16[8192, 2048][2048, 1]"):
         # File: /home/amily/iree-turbine/iree/turbine/kernel/boo/op_exports/aten.py:97 in forward, code: return func(*args, **kwargs)
        fused_op_mm_5902e7b3f2e5a4dfdc641807593e4ca6e591f540_4112x8192xbfloat16_8192x2048xbfloat16: "bf16[4112, 2048][2048, 1]" = torch.ops.boo.fused_op_mm_5902e7b3f2e5a4dfdc641807593e4ca6e591f540_4112x8192xbfloat16_8192x2048xbfloat16(arg0_1, arg1_1);  arg0_1 = arg1_1 = None
        return (fused_op_mm_5902e7b3f2e5a4dfdc641807593e4ca6e591f540_4112x8192xbfloat16_8192x2048xbfloat16,)
        
DEBUG 02-12 15:49:59 [launch.py:345] Saving newly generated mlir file to /home/amily/iree-turbine/iree/turbine/kernel/boo/driver/dump2/fused_op_mm_5902e7b3f2e5a4dfdc641807593e4ca6e591f540_4112x8192xbfloat16_8192x2048xbfloat16/fused_op_mm_5902e7b3f2e5a4dfdc641807593e4ca6e591f540_4112x8192xbfloat16_8192x2048xbfloat16.mlir
DEBUG 02-12 15:49:59 [launch.py:218] Compiling vmfb to cache: /home/amily/iree-turbine/iree/turbine/kernel/boo/driver/dump2/fused_op_mm_5902e7b3f2e5a4dfdc641807593e4ca6e591f540_4112x8192xbfloat16_8192x2048xbfloat16/0831dbe5d0cf8f642aba5b8358bd979a07b4bf39.vmfb
DEBUG 02-12 15:50:00 [launch.py:193] Cached new module for hip:--iree-hal-target-backends=rocm;--iree-hip-target=mi300x
DEBUG 02-12 15:50:00 [launch.py:148] Cached new binary for hip:1:0
DEBUG 02-12 15:50:00 [launch.py:171] Launching cached binary for hip:1:0
DEBUG 02-12 15:50:00 [apply.py:119] Source module:
class <lambda>(torch.nn.Module):
    def forward(self, arg0_1: "bf16[512, 24576][1, 512]", arg1_1: "bf16[24576, 2048][2048, 1]"):
         # File: /home/amily/iree-turbine/iree/turbine/kernel/boo/op_exports/aten.py:97 in forward, code: return func(*args, **kwargs)
        mm: "bf16[512, 2048][2048, 1]" = torch.ops.aten.mm.default(arg0_1, arg1_1);  arg0_1 = arg1_1 = None
        return (mm,)
        
DEBUG 02-12 15:50:00 [subgraph.py:98] pre-sort node_list: [mm]
DEBUG 02-12 15:50:00 [subgraph.py:100] post-sort node_list: [mm]
DEBUG 02-12 15:50:00 [apply.py:119] Decomposed module:
class <lambda>(torch.nn.Module):
    def forward(self, arg0_1: "bf16[512, 24576][1, 512]", arg1_1: "bf16[24576, 2048][2048, 1]"):
        # No stacktrace found for following nodes
        mm: "bf16[512, 2048][2048, 1]" = torch.ops.aten.mm.default(arg0_1, arg1_1);  arg0_1 = arg1_1 = None
        return (mm,)
        
DEBUG 02-12 15:50:00 [graph.py:271] Got hash str '18c23fe92b497b139d9de32ced7c5499bd4e8a96' for GraphModule: 
 class GraphModule(torch.nn.Module):
    def forward(self, arg0_1_boo: "bf16[24576, 512][512, 1]", arg1_1: "bf16[24576, 2048][2048, 1]"):
        # No stacktrace found for following nodes
        permute_default: "bf16[512, 24576][1, 512]" = torch.ops.aten.permute.default(arg0_1_boo, [1, 0]);  arg0_1_boo = None
        mm: "bf16[512, 2048][2048, 1]" = torch.ops.aten.mm.default(permute_default, arg1_1);  permute_default = arg1_1 = None
        return (mm,)
        
DEBUG 02-12 15:50:00 [apply.py:119] Post-fusion module:
class <lambda>(torch.nn.Module):
    def forward(self, arg0_1: "bf16[512, 24576][1, 512]", arg1_1: "bf16[24576, 2048][2048, 1]"):
         # File: /home/amily/iree-turbine/iree/turbine/kernel/boo/op_exports/aten.py:97 in forward, code: return func(*args, **kwargs)
        fused_op_mm_18c23fe92b497b139d9de32ced7c5499bd4e8a96_24576x512xbfloat16_24576x2048xbfloat16: "bf16[512, 2048][2048, 1]" = torch.ops.boo.fused_op_mm_18c23fe92b497b139d9de32ced7c5499bd4e8a96_24576x512xbfloat16_24576x2048xbfloat16(arg0_1, arg1_1);  arg0_1 = arg1_1 = None
        return (fused_op_mm_18c23fe92b497b139d9de32ced7c5499bd4e8a96_24576x512xbfloat16_24576x2048xbfloat16,)
        
DEBUG 02-12 15:50:00 [launch.py:345] Saving newly generated mlir file to /home/amily/iree-turbine/iree/turbine/kernel/boo/driver/dump2/fused_op_mm_18c23fe92b497b139d9de32ced7c5499bd4e8a96_24576x512xbfloat16_24576x2048xbfloat16/fused_op_mm_18c23fe92b497b139d9de32ced7c5499bd4e8a96_24576x512xbfloat16_24576x2048xbfloat16.mlir
DEBUG 02-12 15:50:00 [launch.py:218] Compiling vmfb to cache: /home/amily/iree-turbine/iree/turbine/kernel/boo/driver/dump2/fused_op_mm_18c23fe92b497b139d9de32ced7c5499bd4e8a96_24576x512xbfloat16_24576x2048xbfloat16/0831dbe5d0cf8f642aba5b8358bd979a07b4bf39.vmfb
DEBUG 02-12 15:50:01 [launch.py:193] Cached new module for hip:--iree-hal-target-backends=rocm;--iree-hip-target=mi300x
DEBUG 02-12 15:50:01 [launch.py:148] Cached new binary for hip:1:0
DEBUG 02-12 15:50:01 [launch.py:171] Launching cached binary for hip:1:0
DEBUG 02-12 15:50:01 [apply.py:119] Source module:
class <lambda>(torch.nn.Module):
    def forward(self, arg0_1: "bf16[24576, 2048][2048, 1]", arg1_1: "bf16[2048, 512][1, 2048]"):
         # File: /home/amily/iree-turbine/iree/turbine/kernel/boo/op_exports/aten.py:97 in forward, code: return func(*args, **kwargs)
        mm: "bf16[24576, 512][512, 1]" = torch.ops.aten.mm.default(arg0_1, arg1_1);  arg0_1 = arg1_1 = None
        return (mm,)
        
DEBUG 02-12 15:50:01 [subgraph.py:98] pre-sort node_list: [mm]
DEBUG 02-12 15:50:01 [subgraph.py:100] post-sort node_list: [mm]
DEBUG 02-12 15:50:01 [apply.py:119] Decomposed module:
class <lambda>(torch.nn.Module):
    def forward(self, arg0_1: "bf16[24576, 2048][2048, 1]", arg1_1: "bf16[2048, 512][1, 2048]"):
        # No stacktrace found for following nodes
        mm: "bf16[24576, 512][512, 1]" = torch.ops.aten.mm.default(arg0_1, arg1_1);  arg0_1 = arg1_1 = None
        return (mm,)
        
DEBUG 02-12 15:50:01 [graph.py:271] Got hash str '037e17c7c6421d0affce70af3955521ede7322a6' for GraphModule: 
 class GraphModule(torch.nn.Module):
    def forward(self, arg0_1: "bf16[24576, 2048][2048, 1]", arg1_1_boo: "bf16[512, 2048][2048, 1]"):
        # No stacktrace found for following nodes
        permute_default: "bf16[2048, 512][1, 2048]" = torch.ops.aten.permute.default(arg1_1_boo, [1, 0]);  arg1_1_boo = None
        mm: "bf16[24576, 512][512, 1]" = torch.ops.aten.mm.default(arg0_1, permute_default);  arg0_1 = permute_default = None
        return (mm,)
        
DEBUG 02-12 15:50:01 [apply.py:119] Post-fusion module:
class <lambda>(torch.nn.Module):
    def forward(self, arg0_1: "bf16[24576, 2048][2048, 1]", arg1_1: "bf16[2048, 512][1, 2048]"):
         # File: /home/amily/iree-turbine/iree/turbine/kernel/boo/op_exports/aten.py:97 in forward, code: return func(*args, **kwargs)
        fused_op_mm_037e17c7c6421d0affce70af3955521ede7322a6_24576x2048xbfloat16_512x2048xbfloat16: "bf16[24576, 512][512, 1]" = torch.ops.boo.fused_op_mm_037e17c7c6421d0affce70af3955521ede7322a6_24576x2048xbfloat16_512x2048xbfloat16(arg0_1, arg1_1);  arg0_1 = arg1_1 = None
        return (fused_op_mm_037e17c7c6421d0affce70af3955521ede7322a6_24576x2048xbfloat16_512x2048xbfloat16,)
        
DEBUG 02-12 15:50:01 [launch.py:345] Saving newly generated mlir file to /home/amily/iree-turbine/iree/turbine/kernel/boo/driver/dump2/fused_op_mm_037e17c7c6421d0affce70af3955521ede7322a6_24576x2048xbfloat16_512x2048xbfloat16/fused_op_mm_037e17c7c6421d0affce70af3955521ede7322a6_24576x2048xbfloat16_512x2048xbfloat16.mlir
DEBUG 02-12 15:50:01 [launch.py:218] Compiling vmfb to cache: /home/amily/iree-turbine/iree/turbine/kernel/boo/driver/dump2/fused_op_mm_037e17c7c6421d0affce70af3955521ede7322a6_24576x2048xbfloat16_512x2048xbfloat16/0831dbe5d0cf8f642aba5b8358bd979a07b4bf39.vmfb
DEBUG 02-12 15:50:02 [launch.py:193] Cached new module for hip:--iree-hal-target-backends=rocm;--iree-hip-target=mi300x
DEBUG 02-12 15:50:02 [launch.py:148] Cached new binary for hip:1:0
DEBUG 02-12 15:50:02 [launch.py:171] Launching cached binary for hip:1:0
DEBUG 02-12 15:50:02 [apply.py:119] Source module:
class <lambda>(torch.nn.Module):
    def forward(self, arg0_1: "bf16[4096, 4096][4096, 1]", arg1_1: "bf16[4096, 2048][2048, 1]"):
         # File: /home/amily/iree-turbine/iree/turbine/kernel/boo/op_exports/aten.py:97 in forward, code: return func(*args, **kwargs)
        mm: "bf16[4096, 2048][2048, 1]" = torch.ops.aten.mm.default(arg0_1, arg1_1);  arg0_1 = arg1_1 = None
        return (mm,)
        
DEBUG 02-12 15:50:02 [subgraph.py:98] pre-sort node_list: [mm]
DEBUG 02-12 15:50:02 [subgraph.py:100] post-sort node_list: [mm]
DEBUG 02-12 15:50:02 [apply.py:119] Decomposed module:
class <lambda>(torch.nn.Module):
    def forward(self, arg0_1: "bf16[4096, 4096][4096, 1]", arg1_1: "bf16[4096, 2048][2048, 1]"):
        # No stacktrace found for following nodes
        mm: "bf16[4096, 2048][2048, 1]" = torch.ops.aten.mm.default(arg0_1, arg1_1);  arg0_1 = arg1_1 = None
        return (mm,)
        
DEBUG 02-12 15:50:02 [graph.py:271] Got hash str 'e63209797e8db9a4df3e077b97501401681b3d1e' for GraphModule: 
 class GraphModule(torch.nn.Module):
    def forward(self, arg0_1: "bf16[4096, 4096][4096, 1]", arg1_1: "bf16[4096, 2048][2048, 1]"):
        # No stacktrace found for following nodes
        mm: "bf16[4096, 2048][2048, 1]" = torch.ops.aten.mm.default(arg0_1, arg1_1);  arg0_1 = arg1_1 = None
        return (mm,)
        
DEBUG 02-12 15:50:02 [apply.py:119] Post-fusion module:
class <lambda>(torch.nn.Module):
    def forward(self, arg0_1: "bf16[4096, 4096][4096, 1]", arg1_1: "bf16[4096, 2048][2048, 1]"):
         # File: /home/amily/iree-turbine/iree/turbine/kernel/boo/op_exports/aten.py:97 in forward, code: return func(*args, **kwargs)
        fused_op_mm_e63209797e8db9a4df3e077b97501401681b3d1e_4096x4096xbfloat16_4096x2048xbfloat16: "bf16[4096, 2048][2048, 1]" = torch.ops.boo.fused_op_mm_e63209797e8db9a4df3e077b97501401681b3d1e_4096x4096xbfloat16_4096x2048xbfloat16(arg0_1, arg1_1);  arg0_1 = arg1_1 = None
        return (fused_op_mm_e63209797e8db9a4df3e077b97501401681b3d1e_4096x4096xbfloat16_4096x2048xbfloat16,)
        
DEBUG 02-12 15:50:02 [launch.py:345] Saving newly generated mlir file to /home/amily/iree-turbine/iree/turbine/kernel/boo/driver/dump2/fused_op_mm_e63209797e8db9a4df3e077b97501401681b3d1e_4096x4096xbfloat16_4096x2048xbfloat16/fused_op_mm_e63209797e8db9a4df3e077b97501401681b3d1e_4096x4096xbfloat16_4096x2048xbfloat16.mlir
DEBUG 02-12 15:50:02 [launch.py:218] Compiling vmfb to cache: /home/amily/iree-turbine/iree/turbine/kernel/boo/driver/dump2/fused_op_mm_e63209797e8db9a4df3e077b97501401681b3d1e_4096x4096xbfloat16_4096x2048xbfloat16/0831dbe5d0cf8f642aba5b8358bd979a07b4bf39.vmfb
DEBUG 02-12 15:50:03 [launch.py:193] Cached new module for hip:--iree-hal-target-backends=rocm;--iree-hip-target=mi300x
DEBUG 02-12 15:50:03 [launch.py:148] Cached new binary for hip:1:0
DEBUG 02-12 15:50:03 [launch.py:171] Launching cached binary for hip:1:0
DEBUG 02-12 15:50:03 [apply.py:119] Source module:
class <lambda>(torch.nn.Module):
    def forward(self, arg0_1: "bf16[4096, 4096][1, 4096]", arg1_1: "bf16[4096, 2048][2048, 1]"):
         # File: /home/amily/iree-turbine/iree/turbine/kernel/boo/op_exports/aten.py:97 in forward, code: return func(*args, **kwargs)
        mm: "bf16[4096, 2048][2048, 1]" = torch.ops.aten.mm.default(arg0_1, arg1_1);  arg0_1 = arg1_1 = None
        return (mm,)
        
DEBUG 02-12 15:50:03 [subgraph.py:98] pre-sort node_list: [mm]
DEBUG 02-12 15:50:03 [subgraph.py:100] post-sort node_list: [mm]
DEBUG 02-12 15:50:03 [apply.py:119] Decomposed module:
class <lambda>(torch.nn.Module):
    def forward(self, arg0_1: "bf16[4096, 4096][1, 4096]", arg1_1: "bf16[4096, 2048][2048, 1]"):
        # No stacktrace found for following nodes
        mm: "bf16[4096, 2048][2048, 1]" = torch.ops.aten.mm.default(arg0_1, arg1_1);  arg0_1 = arg1_1 = None
        return (mm,)
        
DEBUG 02-12 15:50:03 [graph.py:271] Got hash str 'db130b65ff3f306690ec221ac913642c0e7b9ca0' for GraphModule: 
 class GraphModule(torch.nn.Module):
    def forward(self, arg0_1_boo: "bf16[4096, 4096][4096, 1]", arg1_1: "bf16[4096, 2048][2048, 1]"):
        # No stacktrace found for following nodes
        permute_default: "bf16[4096, 4096][1, 4096]" = torch.ops.aten.permute.default(arg0_1_boo, [1, 0]);  arg0_1_boo = None
        mm: "bf16[4096, 2048][2048, 1]" = torch.ops.aten.mm.default(permute_default, arg1_1);  permute_default = arg1_1 = None
        return (mm,)
        
DEBUG 02-12 15:50:03 [apply.py:119] Post-fusion module:
class <lambda>(torch.nn.Module):
    def forward(self, arg0_1: "bf16[4096, 4096][1, 4096]", arg1_1: "bf16[4096, 2048][2048, 1]"):
         # File: /home/amily/iree-turbine/iree/turbine/kernel/boo/op_exports/aten.py:97 in forward, code: return func(*args, **kwargs)
        fused_op_mm_db130b65ff3f306690ec221ac913642c0e7b9ca0_4096x4096xbfloat16_4096x2048xbfloat16: "bf16[4096, 2048][2048, 1]" = torch.ops.boo.fused_op_mm_db130b65ff3f306690ec221ac913642c0e7b9ca0_4096x4096xbfloat16_4096x2048xbfloat16(arg0_1, arg1_1);  arg0_1 = arg1_1 = None
        return (fused_op_mm_db130b65ff3f306690ec221ac913642c0e7b9ca0_4096x4096xbfloat16_4096x2048xbfloat16,)
        
DEBUG 02-12 15:50:03 [launch.py:345] Saving newly generated mlir file to /home/amily/iree-turbine/iree/turbine/kernel/boo/driver/dump2/fused_op_mm_db130b65ff3f306690ec221ac913642c0e7b9ca0_4096x4096xbfloat16_4096x2048xbfloat16/fused_op_mm_db130b65ff3f306690ec221ac913642c0e7b9ca0_4096x4096xbfloat16_4096x2048xbfloat16.mlir
DEBUG 02-12 15:50:03 [launch.py:218] Compiling vmfb to cache: /home/amily/iree-turbine/iree/turbine/kernel/boo/driver/dump2/fused_op_mm_db130b65ff3f306690ec221ac913642c0e7b9ca0_4096x4096xbfloat16_4096x2048xbfloat16/0831dbe5d0cf8f642aba5b8358bd979a07b4bf39.vmfb
DEBUG 02-12 15:50:03 [launch.py:193] Cached new module for hip:--iree-hal-target-backends=rocm;--iree-hip-target=mi300x
DEBUG 02-12 15:50:03 [launch.py:148] Cached new binary for hip:1:0
DEBUG 02-12 15:50:03 [launch.py:171] Launching cached binary for hip:1:0
DEBUG 02-12 15:50:04 [apply.py:119] Source module:
class <lambda>(torch.nn.Module):
    def forward(self, arg0_1: "bf16[4112, 2048][2048, 1]", arg1_1: "bf16[2048, 2048][2048, 1]"):
         # File: /home/amily/iree-turbine/iree/turbine/kernel/boo/op_exports/aten.py:97 in forward, code: return func(*args, **kwargs)
        mm: "bf16[4112, 2048][2048, 1]" = torch.ops.aten.mm.default(arg0_1, arg1_1);  arg0_1 = arg1_1 = None
        return (mm,)
        
DEBUG 02-12 15:50:04 [subgraph.py:98] pre-sort node_list: [mm]
DEBUG 02-12 15:50:04 [subgraph.py:100] post-sort node_list: [mm]
DEBUG 02-12 15:50:04 [apply.py:119] Decomposed module:
class <lambda>(torch.nn.Module):
    def forward(self, arg0_1: "bf16[4112, 2048][2048, 1]", arg1_1: "bf16[2048, 2048][2048, 1]"):
        # No stacktrace found for following nodes
        mm: "bf16[4112, 2048][2048, 1]" = torch.ops.aten.mm.default(arg0_1, arg1_1);  arg0_1 = arg1_1 = None
        return (mm,)
        
DEBUG 02-12 15:50:04 [graph.py:271] Got hash str 'f95b35db09b9a9e8f4ea008692436b7f911edd41' for GraphModule: 
 class GraphModule(torch.nn.Module):
    def forward(self, arg0_1: "bf16[4112, 2048][2048, 1]", arg1_1: "bf16[2048, 2048][2048, 1]"):
        # No stacktrace found for following nodes
        mm: "bf16[4112, 2048][2048, 1]" = torch.ops.aten.mm.default(arg0_1, arg1_1);  arg0_1 = arg1_1 = None
        return (mm,)
        
DEBUG 02-12 15:50:04 [apply.py:119] Post-fusion module:
class <lambda>(torch.nn.Module):
    def forward(self, arg0_1: "bf16[4112, 2048][2048, 1]", arg1_1: "bf16[2048, 2048][2048, 1]"):
         # File: /home/amily/iree-turbine/iree/turbine/kernel/boo/op_exports/aten.py:97 in forward, code: return func(*args, **kwargs)
        fused_op_mm_f95b35db09b9a9e8f4ea008692436b7f911edd41_4112x2048xbfloat16_2048x2048xbfloat16: "bf16[4112, 2048][2048, 1]" = torch.ops.boo.fused_op_mm_f95b35db09b9a9e8f4ea008692436b7f911edd41_4112x2048xbfloat16_2048x2048xbfloat16(arg0_1, arg1_1);  arg0_1 = arg1_1 = None
        return (fused_op_mm_f95b35db09b9a9e8f4ea008692436b7f911edd41_4112x2048xbfloat16_2048x2048xbfloat16,)
        
DEBUG 02-12 15:50:04 [launch.py:345] Saving newly generated mlir file to /home/amily/iree-turbine/iree/turbine/kernel/boo/driver/dump2/fused_op_mm_f95b35db09b9a9e8f4ea008692436b7f911edd41_4112x2048xbfloat16_2048x2048xbfloat16/fused_op_mm_f95b35db09b9a9e8f4ea008692436b7f911edd41_4112x2048xbfloat16_2048x2048xbfloat16.mlir
DEBUG 02-12 15:50:04 [launch.py:218] Compiling vmfb to cache: /home/amily/iree-turbine/iree/turbine/kernel/boo/driver/dump2/fused_op_mm_f95b35db09b9a9e8f4ea008692436b7f911edd41_4112x2048xbfloat16_2048x2048xbfloat16/0831dbe5d0cf8f642aba5b8358bd979a07b4bf39.vmfb
DEBUG 02-12 15:50:04 [launch.py:193] Cached new module for hip:--iree-hal-target-backends=rocm;--iree-hip-target=mi300x
DEBUG 02-12 15:50:04 [launch.py:148] Cached new binary for hip:1:0
DEBUG 02-12 15:50:04 [launch.py:171] Launching cached binary for hip:1:0
DEBUG 02-12 15:50:04 [apply.py:119] Source module:
class <lambda>(torch.nn.Module):
    def forward(self, arg0_1: "bf16[2048, 4112][1, 2048]", arg1_1: "bf16[4112, 2048][2048, 1]"):
         # File: /home/amily/iree-turbine/iree/turbine/kernel/boo/op_exports/aten.py:97 in forward, code: return func(*args, **kwargs)
        mm: "bf16[2048, 2048][2048, 1]" = torch.ops.aten.mm.default(arg0_1, arg1_1);  arg0_1 = arg1_1 = None
        return (mm,)
        
DEBUG 02-12 15:50:04 [subgraph.py:98] pre-sort node_list: [mm]
DEBUG 02-12 15:50:04 [subgraph.py:100] post-sort node_list: [mm]
DEBUG 02-12 15:50:04 [apply.py:119] Decomposed module:
class <lambda>(torch.nn.Module):
    def forward(self, arg0_1: "bf16[2048, 4112][1, 2048]", arg1_1: "bf16[4112, 2048][2048, 1]"):
        # No stacktrace found for following nodes
        mm: "bf16[2048, 2048][2048, 1]" = torch.ops.aten.mm.default(arg0_1, arg1_1);  arg0_1 = arg1_1 = None
        return (mm,)
        
DEBUG 02-12 15:50:04 [graph.py:271] Got hash str '79d284b9b53c66d5daa286a3d25a4fb58fcf39fa' for GraphModule: 
 class GraphModule(torch.nn.Module):
    def forward(self, arg0_1_boo: "bf16[4112, 2048][2048, 1]", arg1_1: "bf16[4112, 2048][2048, 1]"):
        # No stacktrace found for following nodes
        permute_default: "bf16[2048, 4112][1, 2048]" = torch.ops.aten.permute.default(arg0_1_boo, [1, 0]);  arg0_1_boo = None
        mm: "bf16[2048, 2048][2048, 1]" = torch.ops.aten.mm.default(permute_default, arg1_1);  permute_default = arg1_1 = None
        return (mm,)
        
DEBUG 02-12 15:50:04 [apply.py:119] Post-fusion module:
class <lambda>(torch.nn.Module):
    def forward(self, arg0_1: "bf16[2048, 4112][1, 2048]", arg1_1: "bf16[4112, 2048][2048, 1]"):
         # File: /home/amily/iree-turbine/iree/turbine/kernel/boo/op_exports/aten.py:97 in forward, code: return func(*args, **kwargs)
        fused_op_mm_79d284b9b53c66d5daa286a3d25a4fb58fcf39fa_4112x2048xbfloat16_4112x2048xbfloat16: "bf16[2048, 2048][2048, 1]" = torch.ops.boo.fused_op_mm_79d284b9b53c66d5daa286a3d25a4fb58fcf39fa_4112x2048xbfloat16_4112x2048xbfloat16(arg0_1, arg1_1);  arg0_1 = arg1_1 = None
        return (fused_op_mm_79d284b9b53c66d5daa286a3d25a4fb58fcf39fa_4112x2048xbfloat16_4112x2048xbfloat16,)
        
DEBUG 02-12 15:50:05 [launch.py:345] Saving newly generated mlir file to /home/amily/iree-turbine/iree/turbine/kernel/boo/driver/dump2/fused_op_mm_79d284b9b53c66d5daa286a3d25a4fb58fcf39fa_4112x2048xbfloat16_4112x2048xbfloat16/fused_op_mm_79d284b9b53c66d5daa286a3d25a4fb58fcf39fa_4112x2048xbfloat16_4112x2048xbfloat16.mlir
DEBUG 02-12 15:50:05 [launch.py:218] Compiling vmfb to cache: /home/amily/iree-turbine/iree/turbine/kernel/boo/driver/dump2/fused_op_mm_79d284b9b53c66d5daa286a3d25a4fb58fcf39fa_4112x2048xbfloat16_4112x2048xbfloat16/0831dbe5d0cf8f642aba5b8358bd979a07b4bf39.vmfb
DEBUG 02-12 15:50:05 [launch.py:193] Cached new module for hip:--iree-hal-target-backends=rocm;--iree-hip-target=mi300x
DEBUG 02-12 15:50:05 [launch.py:148] Cached new binary for hip:1:0
DEBUG 02-12 15:50:05 [launch.py:171] Launching cached binary for hip:1:0
DEBUG 02-12 15:50:05 [apply.py:119] Source module:
class <lambda>(torch.nn.Module):
    def forward(self, arg0_1: "bf16[24576, 512][512, 1]", arg1_1: "bf16[512, 2048][1, 512]"):
         # File: /home/amily/iree-turbine/iree/turbine/kernel/boo/op_exports/aten.py:97 in forward, code: return func(*args, **kwargs)
        mm: "bf16[24576, 2048][2048, 1]" = torch.ops.aten.mm.default(arg0_1, arg1_1);  arg0_1 = arg1_1 = None
        return (mm,)
        
DEBUG 02-12 15:50:05 [subgraph.py:98] pre-sort node_list: [mm]
DEBUG 02-12 15:50:05 [subgraph.py:100] post-sort node_list: [mm]
DEBUG 02-12 15:50:05 [apply.py:119] Decomposed module:
class <lambda>(torch.nn.Module):
    def forward(self, arg0_1: "bf16[24576, 512][512, 1]", arg1_1: "bf16[512, 2048][1, 512]"):
        # No stacktrace found for following nodes
        mm: "bf16[24576, 2048][2048, 1]" = torch.ops.aten.mm.default(arg0_1, arg1_1);  arg0_1 = arg1_1 = None
        return (mm,)
        
DEBUG 02-12 15:50:05 [graph.py:271] Got hash str '177b289ada3f3d6f1934d4b326b2cdbd795fe9c3' for GraphModule: 
 class GraphModule(torch.nn.Module):
    def forward(self, arg0_1: "bf16[24576, 512][512, 1]", arg1_1_boo: "bf16[2048, 512][512, 1]"):
        # No stacktrace found for following nodes
        permute_default: "bf16[512, 2048][1, 512]" = torch.ops.aten.permute.default(arg1_1_boo, [1, 0]);  arg1_1_boo = None
        mm: "bf16[24576, 2048][2048, 1]" = torch.ops.aten.mm.default(arg0_1, permute_default);  arg0_1 = permute_default = None
        return (mm,)
        
DEBUG 02-12 15:50:05 [apply.py:119] Post-fusion module:
class <lambda>(torch.nn.Module):
    def forward(self, arg0_1: "bf16[24576, 512][512, 1]", arg1_1: "bf16[512, 2048][1, 512]"):
         # File: /home/amily/iree-turbine/iree/turbine/kernel/boo/op_exports/aten.py:97 in forward, code: return func(*args, **kwargs)
        fused_op_mm_177b289ada3f3d6f1934d4b326b2cdbd795fe9c3_24576x512xbfloat16_2048x512xbfloat16: "bf16[24576, 2048][2048, 1]" = torch.ops.boo.fused_op_mm_177b289ada3f3d6f1934d4b326b2cdbd795fe9c3_24576x512xbfloat16_2048x512xbfloat16(arg0_1, arg1_1);  arg0_1 = arg1_1 = None
        return (fused_op_mm_177b289ada3f3d6f1934d4b326b2cdbd795fe9c3_24576x512xbfloat16_2048x512xbfloat16,)
        
DEBUG 02-12 15:50:05 [launch.py:345] Saving newly generated mlir file to /home/amily/iree-turbine/iree/turbine/kernel/boo/driver/dump2/fused_op_mm_177b289ada3f3d6f1934d4b326b2cdbd795fe9c3_24576x512xbfloat16_2048x512xbfloat16/fused_op_mm_177b289ada3f3d6f1934d4b326b2cdbd795fe9c3_24576x512xbfloat16_2048x512xbfloat16.mlir
DEBUG 02-12 15:50:05 [launch.py:218] Compiling vmfb to cache: /home/amily/iree-turbine/iree/turbine/kernel/boo/driver/dump2/fused_op_mm_177b289ada3f3d6f1934d4b326b2cdbd795fe9c3_24576x512xbfloat16_2048x512xbfloat16/0831dbe5d0cf8f642aba5b8358bd979a07b4bf39.vmfb
DEBUG 02-12 15:50:06 [launch.py:193] Cached new module for hip:--iree-hal-target-backends=rocm;--iree-hip-target=mi300x
DEBUG 02-12 15:50:06 [launch.py:148] Cached new binary for hip:1:0
DEBUG 02-12 15:50:06 [launch.py:171] Launching cached binary for hip:1:0
DEBUG 02-12 15:50:06 [apply.py:119] Source module:
class <lambda>(torch.nn.Module):
    def forward(self, arg0_1: "bf16[1152, 4096][1, 1152]", arg1_1: "bf16[4096, 576][576, 1]"):
         # File: /home/amily/iree-turbine/iree/turbine/kernel/boo/op_exports/aten.py:97 in forward, code: return func(*args, **kwargs)
        mm: "bf16[1152, 576][576, 1]" = torch.ops.aten.mm.default(arg0_1, arg1_1);  arg0_1 = arg1_1 = None
        return (mm,)
        
DEBUG 02-12 15:50:06 [subgraph.py:98] pre-sort node_list: [mm]
DEBUG 02-12 15:50:06 [subgraph.py:100] post-sort node_list: [mm]
DEBUG 02-12 15:50:06 [apply.py:119] Decomposed module:
class <lambda>(torch.nn.Module):
    def forward(self, arg0_1: "bf16[1152, 4096][1, 1152]", arg1_1: "bf16[4096, 576][576, 1]"):
        # No stacktrace found for following nodes
        mm: "bf16[1152, 576][576, 1]" = torch.ops.aten.mm.default(arg0_1, arg1_1);  arg0_1 = arg1_1 = None
        return (mm,)
        
DEBUG 02-12 15:50:06 [graph.py:271] Got hash str '2b40e1d10f495e8892161007a3d857949b748ed9' for GraphModule: 
 class GraphModule(torch.nn.Module):
    def forward(self, arg0_1_boo: "bf16[4096, 1152][1152, 1]", arg1_1: "bf16[4096, 576][576, 1]"):
        # No stacktrace found for following nodes
        permute_default: "bf16[1152, 4096][1, 1152]" = torch.ops.aten.permute.default(arg0_1_boo, [1, 0]);  arg0_1_boo = None
        mm: "bf16[1152, 576][576, 1]" = torch.ops.aten.mm.default(permute_default, arg1_1);  permute_default = arg1_1 = None
        return (mm,)
        
DEBUG 02-12 15:50:06 [apply.py:119] Post-fusion module:
class <lambda>(torch.nn.Module):
    def forward(self, arg0_1: "bf16[1152, 4096][1, 1152]", arg1_1: "bf16[4096, 576][576, 1]"):
         # File: /home/amily/iree-turbine/iree/turbine/kernel/boo/op_exports/aten.py:97 in forward, code: return func(*args, **kwargs)
        fused_op_mm_2b40e1d10f495e8892161007a3d857949b748ed9_4096x1152xbfloat16_4096x576xbfloat16: "bf16[1152, 576][576, 1]" = torch.ops.boo.fused_op_mm_2b40e1d10f495e8892161007a3d857949b748ed9_4096x1152xbfloat16_4096x576xbfloat16(arg0_1, arg1_1);  arg0_1 = arg1_1 = None
        return (fused_op_mm_2b40e1d10f495e8892161007a3d857949b748ed9_4096x1152xbfloat16_4096x576xbfloat16,)
        
DEBUG 02-12 15:50:06 [launch.py:345] Saving newly generated mlir file to /home/amily/iree-turbine/iree/turbine/kernel/boo/driver/dump2/fused_op_mm_2b40e1d10f495e8892161007a3d857949b748ed9_4096x1152xbfloat16_4096x576xbfloat16/fused_op_mm_2b40e1d10f495e8892161007a3d857949b748ed9_4096x1152xbfloat16_4096x576xbfloat16.mlir
DEBUG 02-12 15:50:06 [launch.py:218] Compiling vmfb to cache: /home/amily/iree-turbine/iree/turbine/kernel/boo/driver/dump2/fused_op_mm_2b40e1d10f495e8892161007a3d857949b748ed9_4096x1152xbfloat16_4096x576xbfloat16/0831dbe5d0cf8f642aba5b8358bd979a07b4bf39.vmfb
DEBUG 02-12 15:50:07 [launch.py:193] Cached new module for hip:--iree-hal-target-backends=rocm;--iree-hip-target=mi300x
DEBUG 02-12 15:50:07 [launch.py:148] Cached new binary for hip:1:0
DEBUG 02-12 15:50:07 [launch.py:171] Launching cached binary for hip:1:0

>>> aten::mm '[[4096, 2048], [2048, 8192]]' '['"'"'c10::BFloat16'"'"', '"'"'c10::BFloat16'"'"']' '[[2048, 1], [8192, 1]]' '['"'"''"'"', '"'"''"'"']' --iter 1 --time 0

>>>	result #0 shape: [4096, 8192]; stride: [8192, 1]; dtype: torch.bfloat16; device type: cuda

>>> aten::mm '[[2048, 4096], [4096, 8192]]' '['"'"'c10::BFloat16'"'"', '"'"'c10::BFloat16'"'"']' '[[1, 2048], [8192, 1]]' '['"'"''"'"', '"'"''"'"']' --iter 1 --time 0

>>>	result #0 shape: [2048, 8192]; stride: [8192, 1]; dtype: torch.bfloat16; device type: cuda

>>> aten::mm '[[8192, 4096], [4096, 2048]]' '['"'"'c10::BFloat16'"'"', '"'"'c10::BFloat16'"'"']' '[[1, 8192], [2048, 1]]' '['"'"''"'"', '"'"''"'"']' --iter 1 --time 0

>>>	result #0 shape: [8192, 2048]; stride: [2048, 1]; dtype: torch.bfloat16; device type: cuda

>>> aten::mm '[[4096, 8192], [8192, 2048]]' '['"'"'c10::BFloat16'"'"', '"'"'c10::BFloat16'"'"']' '[[8192, 1], [2048, 1]]' '['"'"''"'"', '"'"''"'"']' --iter 1 --time 0

>>>	result #0 shape: [4096, 2048]; stride: [2048, 1]; dtype: torch.bfloat16; device type: cuda

>>> aten::mm '[[4096, 8192], [8192, 2048]]' '['"'"'c10::BFloat16'"'"', '"'"'c10::BFloat16'"'"']' '[[8192, 1], [1, 8192]]' '['"'"''"'"', '"'"''"'"']' --iter 1 --time 0

>>>	result #0 shape: [4096, 2048]; stride: [2048, 1]; dtype: torch.bfloat16; device type: cuda

>>> aten::mm '[[6144, 4096], [4096, 2048]]' '['"'"'c10::BFloat16'"'"', '"'"'c10::BFloat16'"'"']' '[[1, 6144], [2048, 1]]' '['"'"''"'"', '"'"''"'"']' --iter 1 --time 0

>>>	result #0 shape: [6144, 2048]; stride: [2048, 1]; dtype: torch.bfloat16; device type: cuda

>>> aten::mm '[[4096, 6144], [6144, 2048]]' '['"'"'c10::BFloat16'"'"', '"'"'c10::BFloat16'"'"']' '[[6144, 1], [2048, 1]]' '['"'"''"'"', '"'"''"'"']' --iter 1 --time 0

>>>	result #0 shape: [4096, 2048]; stride: [2048, 1]; dtype: torch.bfloat16; device type: cuda

>>> aten::mm '[[4096, 2048], [2048, 2048]]' '['"'"'c10::BFloat16'"'"', '"'"'c10::BFloat16'"'"']' '[[2048, 1], [2048, 1]]' '['"'"''"'"', '"'"''"'"']' --iter 1 --time 0

>>>	result #0 shape: [4096, 2048]; stride: [2048, 1]; dtype: torch.bfloat16; device type: cuda

>>> aten::mm '[[4096, 2048], [2048, 2048]]' '['"'"'c10::BFloat16'"'"', '"'"'c10::BFloat16'"'"']' '[[2048, 1], [1, 2048]]' '['"'"''"'"', '"'"''"'"']' --iter 1 --time 0

>>>	result #0 shape: [4096, 2048]; stride: [2048, 1]; dtype: torch.bfloat16; device type: cuda

>>> aten::mm '[[2048, 4096], [4096, 2048]]' '['"'"'c10::BFloat16'"'"', '"'"'c10::BFloat16'"'"']' '[[1, 2048], [2048, 1]]' '['"'"''"'"', '"'"''"'"']' --iter 1 --time 0

>>>	result #0 shape: [2048, 2048]; stride: [2048, 1]; dtype: torch.bfloat16; device type: cuda

>>> aten::mm '[[512, 24576], [24576, 512]]' '['"'"'c10::BFloat16'"'"', '"'"'c10::BFloat16'"'"']' '[[1, 512], [512, 1]]' '['"'"''"'"', '"'"''"'"']' --iter 1 --time 0

>>>	result #0 shape: [512, 512]; stride: [512, 1]; dtype: torch.bfloat16; device type: cuda

>>> aten::mm '[[24576, 2048], [2048, 1536]]' '['"'"'c10::BFloat16'"'"', '"'"'c10::BFloat16'"'"']' '[[2048, 1], [1536, 1]]' '['"'"''"'"', '"'"''"'"']' --iter 1 --time 0

>>>	result #0 shape: [24576, 1536]; stride: [1536, 1]; dtype: torch.bfloat16; device type: cuda

>>> aten::mm '[[24576, 1536], [1536, 2048]]' '['"'"'c10::BFloat16'"'"', '"'"'c10::BFloat16'"'"']' '[[1536, 1], [1, 1536]]' '['"'"''"'"', '"'"''"'"']' --iter 1 --time 0

>>>	result #0 shape: [24576, 2048]; stride: [2048, 1]; dtype: torch.bfloat16; device type: cuda

>>> aten::addmm '[[512], [24576, 512], [512, 512], [], []]' '['"'"'c10::BFloat16'"'"', '"'"'c10::BFloat16'"'"', '"'"'c10::BFloat16'"'"', '"'"'Scalar'"'"', '"'"'Scalar'"'"']' '[[1], [512, 1], [1, 512], [], []]' '['"'"''"'"', '"'"''"'"', '"'"''"'"', '"'"'1'"'"', '"'"'1'"'"']' --iter 1 --time 0

>>>	result #0 shape: [24576, 512]; stride: [512, 1]; dtype: torch.bfloat16; device type: cuda

>>> aten::mm '[[24576, 512], [512, 512]]' '['"'"'c10::BFloat16'"'"', '"'"'c10::BFloat16'"'"']' '[[512, 1], [512, 1]]' '['"'"''"'"', '"'"''"'"']' --iter 1 --time 0

>>>	result #0 shape: [24576, 512]; stride: [512, 1]; dtype: torch.bfloat16; device type: cuda

>>> aten::mm '[[2048, 24576], [24576, 1536]]' '['"'"'c10::BFloat16'"'"', '"'"'c10::BFloat16'"'"']' '[[1, 2048], [1536, 1]]' '['"'"''"'"', '"'"''"'"']' --iter 1 --time 0

>>>	result #0 shape: [2048, 1536]; stride: [1536, 1]; dtype: torch.bfloat16; device type: cuda

>>> aten::mm '[[4112, 2048], [2048, 8192]]' '['"'"'c10::BFloat16'"'"', '"'"'c10::BFloat16'"'"']' '[[2048, 1], [8192, 1]]' '['"'"''"'"', '"'"''"'"']' --iter 1 --time 0

>>>	result #0 shape: [4112, 8192]; stride: [8192, 1]; dtype: torch.bfloat16; device type: cuda

>>> aten::mm '[[2048, 4112], [4112, 8192]]' '['"'"'c10::BFloat16'"'"', '"'"'c10::BFloat16'"'"']' '[[1, 2048], [8192, 1]]' '['"'"''"'"', '"'"''"'"']' --iter 1 --time 0

>>>	result #0 shape: [2048, 8192]; stride: [8192, 1]; dtype: torch.bfloat16; device type: cuda

>>> aten::mm '[[8192, 4112], [4112, 2048]]' '['"'"'c10::BFloat16'"'"', '"'"'c10::BFloat16'"'"']' '[[1, 8192], [2048, 1]]' '['"'"''"'"', '"'"''"'"']' --iter 1 --time 0

>>>	result #0 shape: [8192, 2048]; stride: [2048, 1]; dtype: torch.bfloat16; device type: cuda

>>> aten::mm '[[4112, 8192], [8192, 2048]]' '['"'"'c10::BFloat16'"'"', '"'"'c10::BFloat16'"'"']' '[[8192, 1], [1, 8192]]' '['"'"''"'"', '"'"''"'"']' --iter 1 --time 0

>>>	result #0 shape: [4112, 2048]; stride: [2048, 1]; dtype: torch.bfloat16; device type: cuda

>>> aten::mm '[[24576, 512], [512, 2048]]' '['"'"'c10::BFloat16'"'"', '"'"'c10::BFloat16'"'"']' '[[512, 1], [2048, 1]]' '['"'"''"'"', '"'"''"'"']' --iter 1 --time 0

>>>	result #0 shape: [24576, 2048]; stride: [2048, 1]; dtype: torch.bfloat16; device type: cuda

>>> aten::mm '[[4112, 8192], [8192, 2048]]' '['"'"'c10::BFloat16'"'"', '"'"'c10::BFloat16'"'"']' '[[8192, 1], [2048, 1]]' '['"'"''"'"', '"'"''"'"']' --iter 1 --time 0

>>>	result #0 shape: [4112, 2048]; stride: [2048, 1]; dtype: torch.bfloat16; device type: cuda

>>> aten::mm '[[512, 24576], [24576, 2048]]' '['"'"'c10::BFloat16'"'"', '"'"'c10::BFloat16'"'"']' '[[1, 512], [2048, 1]]' '['"'"''"'"', '"'"''"'"']' --iter 1 --time 0

>>>	result #0 shape: [512, 2048]; stride: [2048, 1]; dtype: torch.bfloat16; device type: cuda

>>> aten::mm '[[24576, 2048], [2048, 512]]' '['"'"'c10::BFloat16'"'"', '"'"'c10::BFloat16'"'"']' '[[2048, 1], [1, 2048]]' '['"'"''"'"', '"'"''"'"']' --iter 1 --time 0

>>>	result #0 shape: [24576, 512]; stride: [512, 1]; dtype: torch.bfloat16; device type: cuda

>>> aten::mm '[[4096, 4096], [4096, 2048]]' '['"'"'c10::BFloat16'"'"', '"'"'c10::BFloat16'"'"']' '[[4096, 1], [2048, 1]]' '['"'"''"'"', '"'"''"'"']' --iter 1 --time 0

>>>	result #0 shape: [4096, 2048]; stride: [2048, 1]; dtype: torch.bfloat16; device type: cuda

>>> aten::mm '[[4096, 4096], [4096, 2048]]' '['"'"'c10::BFloat16'"'"', '"'"'c10::BFloat16'"'"']' '[[1, 4096], [2048, 1]]' '['"'"''"'"', '"'"''"'"']' --iter 1 --time 0

>>>	result #0 shape: [4096, 2048]; stride: [2048, 1]; dtype: torch.bfloat16; device type: cuda

>>> aten::mm '[[4112, 2048], [2048, 2048]]' '['"'"'c10::BFloat16'"'"', '"'"'c10::BFloat16'"'"']' '[[2048, 1], [2048, 1]]' '['"'"''"'"', '"'"''"'"']' --iter 1 --time 0

>>>	result #0 shape: [4112, 2048]; stride: [2048, 1]; dtype: torch.bfloat16; device type: cuda

>>> aten::mm '[[2048, 4112], [4112, 2048]]' '['"'"'c10::BFloat16'"'"', '"'"'c10::BFloat16'"'"']' '[[1, 2048], [2048, 1]]' '['"'"''"'"', '"'"''"'"']' --iter 1 --time 0

>>>	result #0 shape: [2048, 2048]; stride: [2048, 1]; dtype: torch.bfloat16; device type: cuda

>>> aten::mm '[[24576, 512], [512, 2048]]' '['"'"'c10::BFloat16'"'"', '"'"'c10::BFloat16'"'"']' '[[512, 1], [1, 512]]' '['"'"''"'"', '"'"''"'"']' --iter 1 --time 0

>>>	result #0 shape: [24576, 2048]; stride: [2048, 1]; dtype: torch.bfloat16; device type: cuda

>>> aten::mm '[[1152, 4096], [4096, 576]]' '['"'"'c10::BFloat16'"'"', '"'"'c10::BFloat16'"'"']' '[[1, 1152], [576, 1]]' '['"'"''"'"', '"'"''"'"']' --iter 1 --time 0

>>>	result #0 shape: [1152, 576]; stride: [576, 1]; dtype: torch.bfloat16; device type: cuda

>>> aten::mm '[[2048, 24576], [24576, 512]]' '['"'"'c10::BFloat16'"'"', '"'"'c10::BFloat16'"'"']' '[[1, 2048], [512, 1]]' '['"'"''"'"', '"'"''"'"']' --iter 1 --time 0
DEBUG 02-12 15:50:07 [apply.py:119] Source module:
class <lambda>(torch.nn.Module):
    def forward(self, arg0_1: "bf16[2048, 24576][1, 2048]", arg1_1: "bf16[24576, 512][512, 1]"):
         # File: /home/amily/iree-turbine/iree/turbine/kernel/boo/op_exports/aten.py:97 in forward, code: return func(*args, **kwargs)
        mm: "bf16[2048, 512][512, 1]" = torch.ops.aten.mm.default(arg0_1, arg1_1);  arg0_1 = arg1_1 = None
        return (mm,)
        
DEBUG 02-12 15:50:07 [subgraph.py:98] pre-sort node_list: [mm]
DEBUG 02-12 15:50:07 [subgraph.py:100] post-sort node_list: [mm]
DEBUG 02-12 15:50:07 [apply.py:119] Decomposed module:
class <lambda>(torch.nn.Module):
    def forward(self, arg0_1: "bf16[2048, 24576][1, 2048]", arg1_1: "bf16[24576, 512][512, 1]"):
        # No stacktrace found for following nodes
        mm: "bf16[2048, 512][512, 1]" = torch.ops.aten.mm.default(arg0_1, arg1_1);  arg0_1 = arg1_1 = None
        return (mm,)
        
DEBUG 02-12 15:50:07 [graph.py:271] Got hash str 'de1cc1ecefb296f0f36d55e7d939d0a1de5291ed' for GraphModule: 
 class GraphModule(torch.nn.Module):
    def forward(self, arg0_1_boo: "bf16[24576, 2048][2048, 1]", arg1_1: "bf16[24576, 512][512, 1]"):
        # No stacktrace found for following nodes
        permute_default: "bf16[2048, 24576][1, 2048]" = torch.ops.aten.permute.default(arg0_1_boo, [1, 0]);  arg0_1_boo = None
        mm: "bf16[2048, 512][512, 1]" = torch.ops.aten.mm.default(permute_default, arg1_1);  permute_default = arg1_1 = None
        return (mm,)
        
DEBUG 02-12 15:50:07 [apply.py:119] Post-fusion module:
class <lambda>(torch.nn.Module):
    def forward(self, arg0_1: "bf16[2048, 24576][1, 2048]", arg1_1: "bf16[24576, 512][512, 1]"):
         # File: /home/amily/iree-turbine/iree/turbine/kernel/boo/op_exports/aten.py:97 in forward, code: return func(*args, **kwargs)
        fused_op_mm_de1cc1ecefb296f0f36d55e7d939d0a1de5291ed_24576x2048xbfloat16_24576x512xbfloat16: "bf16[2048, 512][512, 1]" = torch.ops.boo.fused_op_mm_de1cc1ecefb296f0f36d55e7d939d0a1de5291ed_24576x2048xbfloat16_24576x512xbfloat16(arg0_1, arg1_1);  arg0_1 = arg1_1 = None
        return (fused_op_mm_de1cc1ecefb296f0f36d55e7d939d0a1de5291ed_24576x2048xbfloat16_24576x512xbfloat16,)
        
DEBUG 02-12 15:50:07 [launch.py:345] Saving newly generated mlir file to /home/amily/iree-turbine/iree/turbine/kernel/boo/driver/dump2/fused_op_mm_de1cc1ecefb296f0f36d55e7d939d0a1de5291ed_24576x2048xbfloat16_24576x512xbfloat16/fused_op_mm_de1cc1ecefb296f0f36d55e7d939d0a1de5291ed_24576x2048xbfloat16_24576x512xbfloat16.mlir
DEBUG 02-12 15:50:07 [launch.py:218] Compiling vmfb to cache: /home/amily/iree-turbine/iree/turbine/kernel/boo/driver/dump2/fused_op_mm_de1cc1ecefb296f0f36d55e7d939d0a1de5291ed_24576x2048xbfloat16_24576x512xbfloat16/0831dbe5d0cf8f642aba5b8358bd979a07b4bf39.vmfb
DEBUG 02-12 15:50:07 [launch.py:193] Cached new module for hip:--iree-hal-target-backends=rocm;--iree-hip-target=mi300x
DEBUG 02-12 15:50:07 [launch.py:148] Cached new binary for hip:1:0
DEBUG 02-12 15:50:07 [launch.py:171] Launching cached binary for hip:1:0
DEBUG 02-12 15:50:08 [apply.py:119] Source module:
class <lambda>(torch.nn.Module):
    def forward(self, arg0_1: "bf16[24576, 2048][2048, 1]", arg1_1: "bf16[2048, 512][512, 1]"):
         # File: /home/amily/iree-turbine/iree/turbine/kernel/boo/op_exports/aten.py:97 in forward, code: return func(*args, **kwargs)
        mm: "bf16[24576, 512][512, 1]" = torch.ops.aten.mm.default(arg0_1, arg1_1);  arg0_1 = arg1_1 = None
        return (mm,)
        
DEBUG 02-12 15:50:08 [subgraph.py:98] pre-sort node_list: [mm]
DEBUG 02-12 15:50:08 [subgraph.py:100] post-sort node_list: [mm]
DEBUG 02-12 15:50:08 [apply.py:119] Decomposed module:
class <lambda>(torch.nn.Module):
    def forward(self, arg0_1: "bf16[24576, 2048][2048, 1]", arg1_1: "bf16[2048, 512][512, 1]"):
        # No stacktrace found for following nodes
        mm: "bf16[24576, 512][512, 1]" = torch.ops.aten.mm.default(arg0_1, arg1_1);  arg0_1 = arg1_1 = None
        return (mm,)
        
DEBUG 02-12 15:50:08 [graph.py:271] Got hash str 'e2e72c2e0c1af04b06aeee2cfe0e751bcb850a6c' for GraphModule: 
 class GraphModule(torch.nn.Module):
    def forward(self, arg0_1: "bf16[24576, 2048][2048, 1]", arg1_1: "bf16[2048, 512][512, 1]"):
        # No stacktrace found for following nodes
        mm: "bf16[24576, 512][512, 1]" = torch.ops.aten.mm.default(arg0_1, arg1_1);  arg0_1 = arg1_1 = None
        return (mm,)
        
DEBUG 02-12 15:50:08 [apply.py:119] Post-fusion module:
class <lambda>(torch.nn.Module):
    def forward(self, arg0_1: "bf16[24576, 2048][2048, 1]", arg1_1: "bf16[2048, 512][512, 1]"):
         # File: /home/amily/iree-turbine/iree/turbine/kernel/boo/op_exports/aten.py:97 in forward, code: return func(*args, **kwargs)
        fused_op_mm_e2e72c2e0c1af04b06aeee2cfe0e751bcb850a6c_24576x2048xbfloat16_2048x512xbfloat16: "bf16[24576, 512][512, 1]" = torch.ops.boo.fused_op_mm_e2e72c2e0c1af04b06aeee2cfe0e751bcb850a6c_24576x2048xbfloat16_2048x512xbfloat16(arg0_1, arg1_1);  arg0_1 = arg1_1 = None
        return (fused_op_mm_e2e72c2e0c1af04b06aeee2cfe0e751bcb850a6c_24576x2048xbfloat16_2048x512xbfloat16,)
        
DEBUG 02-12 15:50:08 [launch.py:345] Saving newly generated mlir file to /home/amily/iree-turbine/iree/turbine/kernel/boo/driver/dump2/fused_op_mm_e2e72c2e0c1af04b06aeee2cfe0e751bcb850a6c_24576x2048xbfloat16_2048x512xbfloat16/fused_op_mm_e2e72c2e0c1af04b06aeee2cfe0e751bcb850a6c_24576x2048xbfloat16_2048x512xbfloat16.mlir
DEBUG 02-12 15:50:08 [launch.py:218] Compiling vmfb to cache: /home/amily/iree-turbine/iree/turbine/kernel/boo/driver/dump2/fused_op_mm_e2e72c2e0c1af04b06aeee2cfe0e751bcb850a6c_24576x2048xbfloat16_2048x512xbfloat16/0831dbe5d0cf8f642aba5b8358bd979a07b4bf39.vmfb
DEBUG 02-12 15:50:08 [launch.py:193] Cached new module for hip:--iree-hal-target-backends=rocm;--iree-hip-target=mi300x
DEBUG 02-12 15:50:08 [launch.py:148] Cached new binary for hip:1:0
DEBUG 02-12 15:50:08 [launch.py:171] Launching cached binary for hip:1:0
DEBUG 02-12 15:50:09 [apply.py:119] Source module:
class <lambda>(torch.nn.Module):
    def forward(self, arg0_1: "bf16[4096, 1152][1152, 1]", arg1_1: "bf16[1152, 576][576, 1]"):
         # File: /home/amily/iree-turbine/iree/turbine/kernel/boo/op_exports/aten.py:97 in forward, code: return func(*args, **kwargs)
        mm: "bf16[4096, 576][576, 1]" = torch.ops.aten.mm.default(arg0_1, arg1_1);  arg0_1 = arg1_1 = None
        return (mm,)
        
DEBUG 02-12 15:50:09 [subgraph.py:98] pre-sort node_list: [mm]
DEBUG 02-12 15:50:09 [subgraph.py:100] post-sort node_list: [mm]
DEBUG 02-12 15:50:09 [apply.py:119] Decomposed module:
class <lambda>(torch.nn.Module):
    def forward(self, arg0_1: "bf16[4096, 1152][1152, 1]", arg1_1: "bf16[1152, 576][576, 1]"):
        # No stacktrace found for following nodes
        mm: "bf16[4096, 576][576, 1]" = torch.ops.aten.mm.default(arg0_1, arg1_1);  arg0_1 = arg1_1 = None
        return (mm,)
        
DEBUG 02-12 15:50:09 [graph.py:271] Got hash str '815596f93e67e8e8bdaa1bd20990c050aacfec1e' for GraphModule: 
 class GraphModule(torch.nn.Module):
    def forward(self, arg0_1: "bf16[4096, 1152][1152, 1]", arg1_1: "bf16[1152, 576][576, 1]"):
        # No stacktrace found for following nodes
        mm: "bf16[4096, 576][576, 1]" = torch.ops.aten.mm.default(arg0_1, arg1_1);  arg0_1 = arg1_1 = None
        return (mm,)
        
DEBUG 02-12 15:50:09 [apply.py:119] Post-fusion module:
class <lambda>(torch.nn.Module):
    def forward(self, arg0_1: "bf16[4096, 1152][1152, 1]", arg1_1: "bf16[1152, 576][576, 1]"):
         # File: /home/amily/iree-turbine/iree/turbine/kernel/boo/op_exports/aten.py:97 in forward, code: return func(*args, **kwargs)
        fused_op_mm_815596f93e67e8e8bdaa1bd20990c050aacfec1e_4096x1152xbfloat16_1152x576xbfloat16: "bf16[4096, 576][576, 1]" = torch.ops.boo.fused_op_mm_815596f93e67e8e8bdaa1bd20990c050aacfec1e_4096x1152xbfloat16_1152x576xbfloat16(arg0_1, arg1_1);  arg0_1 = arg1_1 = None
        return (fused_op_mm_815596f93e67e8e8bdaa1bd20990c050aacfec1e_4096x1152xbfloat16_1152x576xbfloat16,)
        
DEBUG 02-12 15:50:09 [launch.py:345] Saving newly generated mlir file to /home/amily/iree-turbine/iree/turbine/kernel/boo/driver/dump2/fused_op_mm_815596f93e67e8e8bdaa1bd20990c050aacfec1e_4096x1152xbfloat16_1152x576xbfloat16/fused_op_mm_815596f93e67e8e8bdaa1bd20990c050aacfec1e_4096x1152xbfloat16_1152x576xbfloat16.mlir
DEBUG 02-12 15:50:09 [launch.py:218] Compiling vmfb to cache: /home/amily/iree-turbine/iree/turbine/kernel/boo/driver/dump2/fused_op_mm_815596f93e67e8e8bdaa1bd20990c050aacfec1e_4096x1152xbfloat16_1152x576xbfloat16/0831dbe5d0cf8f642aba5b8358bd979a07b4bf39.vmfb
DEBUG 02-12 15:50:10 [launch.py:193] Cached new module for hip:--iree-hal-target-backends=rocm;--iree-hip-target=mi300x
DEBUG 02-12 15:50:10 [launch.py:148] Cached new binary for hip:1:0
DEBUG 02-12 15:50:10 [launch.py:171] Launching cached binary for hip:1:0
DEBUG 02-12 15:50:10 [apply.py:119] Source module:
class <lambda>(torch.nn.Module):
    def forward(self, arg0_1: "f64[128, 3, 3][9, 3, 1]", arg1_1: "f64[128, 3, 1152][3456, 1152, 1]"):
         # File: /home/amily/iree-turbine/iree/turbine/kernel/boo/op_exports/aten.py:97 in forward, code: return func(*args, **kwargs)
        bmm: "f64[128, 3, 1152][3456, 1152, 1]" = torch.ops.aten.bmm.default(arg0_1, arg1_1);  arg0_1 = arg1_1 = None
        return (bmm,)
        
DEBUG 02-12 15:50:10 [subgraph.py:98] pre-sort node_list: [bmm]
DEBUG 02-12 15:50:10 [subgraph.py:100] post-sort node_list: [bmm]
DEBUG 02-12 15:50:10 [apply.py:119] Decomposed module:
class <lambda>(torch.nn.Module):
    def forward(self, arg0_1: "f64[128, 3, 3][9, 3, 1]", arg1_1: "f64[128, 3, 1152][3456, 1152, 1]"):
        # No stacktrace found for following nodes
        bmm: "f64[128, 3, 1152][3456, 1152, 1]" = torch.ops.aten.bmm.default(arg0_1, arg1_1);  arg0_1 = arg1_1 = None
        return (bmm,)
        
DEBUG 02-12 15:50:10 [graph.py:271] Got hash str 'cd2c01531f6bc12976a4418ee3511a3c781328f3' for GraphModule: 
 class GraphModule(torch.nn.Module):
    def forward(self, arg0_1: "f64[128, 3, 3][9, 3, 1]", arg1_1: "f64[128, 3, 1152][3456, 1152, 1]"):
        # No stacktrace found for following nodes
        bmm: "f64[128, 3, 1152][3456, 1152, 1]" = torch.ops.aten.bmm.default(arg0_1, arg1_1);  arg0_1 = arg1_1 = None
        return (bmm,)
        
DEBUG 02-12 15:50:10 [apply.py:119] Post-fusion module:
class <lambda>(torch.nn.Module):
    def forward(self, arg0_1: "f64[128, 3, 3][9, 3, 1]", arg1_1: "f64[128, 3, 1152][3456, 1152, 1]"):
         # File: /home/amily/iree-turbine/iree/turbine/kernel/boo/op_exports/aten.py:97 in forward, code: return func(*args, **kwargs)
        fused_op_bmm_cd2c01531f6bc12976a4418ee3511a3c781328f3_128x3x3xfloat64_128x3x1152xfloat64: "f64[128, 3, 1152][3456, 1152, 1]" = torch.ops.boo.fused_op_bmm_cd2c01531f6bc12976a4418ee3511a3c781328f3_128x3x3xfloat64_128x3x1152xfloat64(arg0_1, arg1_1);  arg0_1 = arg1_1 = None
        return (fused_op_bmm_cd2c01531f6bc12976a4418ee3511a3c781328f3_128x3x3xfloat64_128x3x1152xfloat64,)
        
DEBUG 02-12 15:50:10 [launch.py:345] Saving newly generated mlir file to /home/amily/iree-turbine/iree/turbine/kernel/boo/driver/dump2/fused_op_bmm_cd2c01531f6bc12976a4418ee3511a3c781328f3_128x3x3xfloat64_128x3x1152xfloat64/fused_op_bmm_cd2c01531f6bc12976a4418ee3511a3c781328f3_128x3x3xfloat64_128x3x1152xfloat64.mlir
DEBUG 02-12 15:50:10 [launch.py:218] Compiling vmfb to cache: /home/amily/iree-turbine/iree/turbine/kernel/boo/driver/dump2/fused_op_bmm_cd2c01531f6bc12976a4418ee3511a3c781328f3_128x3x3xfloat64_128x3x1152xfloat64/0831dbe5d0cf8f642aba5b8358bd979a07b4bf39.vmfb
DEBUG 02-12 15:50:10 [launch.py:193] Cached new module for hip:--iree-hal-target-backends=rocm;--iree-hip-target=mi300x
DEBUG 02-12 15:50:10 [launch.py:148] Cached new binary for hip:1:0
DEBUG 02-12 15:50:10 [launch.py:171] Launching cached binary for hip:1:0
DEBUG 02-12 15:50:10 [apply.py:119] Source module:
class <lambda>(torch.nn.Module):
    def forward(self, arg0_1: "f64[128, 3, 3][9, 3, 1]", arg1_1: "f64[128, 3, 2304][6912, 2304, 1]"):
         # File: /home/amily/iree-turbine/iree/turbine/kernel/boo/op_exports/aten.py:97 in forward, code: return func(*args, **kwargs)
        bmm: "f64[128, 3, 2304][6912, 2304, 1]" = torch.ops.aten.bmm.default(arg0_1, arg1_1);  arg0_1 = arg1_1 = None
        return (bmm,)
        
DEBUG 02-12 15:50:10 [subgraph.py:98] pre-sort node_list: [bmm]
DEBUG 02-12 15:50:10 [subgraph.py:100] post-sort node_list: [bmm]
DEBUG 02-12 15:50:10 [apply.py:119] Decomposed module:
class <lambda>(torch.nn.Module):
    def forward(self, arg0_1: "f64[128, 3, 3][9, 3, 1]", arg1_1: "f64[128, 3, 2304][6912, 2304, 1]"):
        # No stacktrace found for following nodes
        bmm: "f64[128, 3, 2304][6912, 2304, 1]" = torch.ops.aten.bmm.default(arg0_1, arg1_1);  arg0_1 = arg1_1 = None
        return (bmm,)
        
DEBUG 02-12 15:50:10 [graph.py:271] Got hash str '6e681fd7acb32ed9dd3e3e9fe55620ea35b6a697' for GraphModule: 
 class GraphModule(torch.nn.Module):
    def forward(self, arg0_1: "f64[128, 3, 3][9, 3, 1]", arg1_1: "f64[128, 3, 2304][6912, 2304, 1]"):
        # No stacktrace found for following nodes
        bmm: "f64[128, 3, 2304][6912, 2304, 1]" = torch.ops.aten.bmm.default(arg0_1, arg1_1);  arg0_1 = arg1_1 = None
        return (bmm,)
        
DEBUG 02-12 15:50:10 [apply.py:119] Post-fusion module:
class <lambda>(torch.nn.Module):
    def forward(self, arg0_1: "f64[128, 3, 3][9, 3, 1]", arg1_1: "f64[128, 3, 2304][6912, 2304, 1]"):
         # File: /home/amily/iree-turbine/iree/turbine/kernel/boo/op_exports/aten.py:97 in forward, code: return func(*args, **kwargs)
        fused_op_bmm_6e681fd7acb32ed9dd3e3e9fe55620ea35b6a697_128x3x3xfloat64_128x3x2304xfloat64: "f64[128, 3, 2304][6912, 2304, 1]" = torch.ops.boo.fused_op_bmm_6e681fd7acb32ed9dd3e3e9fe55620ea35b6a697_128x3x3xfloat64_128x3x2304xfloat64(arg0_1, arg1_1);  arg0_1 = arg1_1 = None
        return (fused_op_bmm_6e681fd7acb32ed9dd3e3e9fe55620ea35b6a697_128x3x3xfloat64_128x3x2304xfloat64,)
        
DEBUG 02-12 15:50:10 [launch.py:345] Saving newly generated mlir file to /home/amily/iree-turbine/iree/turbine/kernel/boo/driver/dump2/fused_op_bmm_6e681fd7acb32ed9dd3e3e9fe55620ea35b6a697_128x3x3xfloat64_128x3x2304xfloat64/fused_op_bmm_6e681fd7acb32ed9dd3e3e9fe55620ea35b6a697_128x3x3xfloat64_128x3x2304xfloat64.mlir
DEBUG 02-12 15:50:10 [launch.py:218] Compiling vmfb to cache: /home/amily/iree-turbine/iree/turbine/kernel/boo/driver/dump2/fused_op_bmm_6e681fd7acb32ed9dd3e3e9fe55620ea35b6a697_128x3x3xfloat64_128x3x2304xfloat64/0831dbe5d0cf8f642aba5b8358bd979a07b4bf39.vmfb
DEBUG 02-12 15:50:11 [launch.py:193] Cached new module for hip:--iree-hal-target-backends=rocm;--iree-hip-target=mi300x
DEBUG 02-12 15:50:11 [launch.py:148] Cached new binary for hip:1:0
DEBUG 02-12 15:50:11 [launch.py:171] Launching cached binary for hip:1:0
DEBUG 02-12 15:50:11 [apply.py:119] Source module:
class <lambda>(torch.nn.Module):
    def forward(self, arg0_1: "bf16[4112, 2048][2048, 1]", arg1_1: "bf16[2048, 2048][1, 2048]"):
         # File: /home/amily/iree-turbine/iree/turbine/kernel/boo/op_exports/aten.py:97 in forward, code: return func(*args, **kwargs)
        mm: "bf16[4112, 2048][2048, 1]" = torch.ops.aten.mm.default(arg0_1, arg1_1);  arg0_1 = arg1_1 = None
        return (mm,)
        
DEBUG 02-12 15:50:11 [subgraph.py:98] pre-sort node_list: [mm]
DEBUG 02-12 15:50:11 [subgraph.py:100] post-sort node_list: [mm]
DEBUG 02-12 15:50:11 [apply.py:119] Decomposed module:
class <lambda>(torch.nn.Module):
    def forward(self, arg0_1: "bf16[4112, 2048][2048, 1]", arg1_1: "bf16[2048, 2048][1, 2048]"):
        # No stacktrace found for following nodes
        mm: "bf16[4112, 2048][2048, 1]" = torch.ops.aten.mm.default(arg0_1, arg1_1);  arg0_1 = arg1_1 = None
        return (mm,)
        
DEBUG 02-12 15:50:11 [graph.py:271] Got hash str 'd7ff0a7e7059ec0cebffd1488a48dd840778c6f2' for GraphModule: 
 class GraphModule(torch.nn.Module):
    def forward(self, arg0_1: "bf16[4112, 2048][2048, 1]", arg1_1_boo: "bf16[2048, 2048][2048, 1]"):
        # No stacktrace found for following nodes
        permute_default: "bf16[2048, 2048][1, 2048]" = torch.ops.aten.permute.default(arg1_1_boo, [1, 0]);  arg1_1_boo = None
        mm: "bf16[4112, 2048][2048, 1]" = torch.ops.aten.mm.default(arg0_1, permute_default);  arg0_1 = permute_default = None
        return (mm,)
        
DEBUG 02-12 15:50:11 [apply.py:119] Post-fusion module:
class <lambda>(torch.nn.Module):
    def forward(self, arg0_1: "bf16[4112, 2048][2048, 1]", arg1_1: "bf16[2048, 2048][1, 2048]"):
         # File: /home/amily/iree-turbine/iree/turbine/kernel/boo/op_exports/aten.py:97 in forward, code: return func(*args, **kwargs)
        fused_op_mm_d7ff0a7e7059ec0cebffd1488a48dd840778c6f2_4112x2048xbfloat16_2048x2048xbfloat16: "bf16[4112, 2048][2048, 1]" = torch.ops.boo.fused_op_mm_d7ff0a7e7059ec0cebffd1488a48dd840778c6f2_4112x2048xbfloat16_2048x2048xbfloat16(arg0_1, arg1_1);  arg0_1 = arg1_1 = None
        return (fused_op_mm_d7ff0a7e7059ec0cebffd1488a48dd840778c6f2_4112x2048xbfloat16_2048x2048xbfloat16,)
        
DEBUG 02-12 15:50:11 [launch.py:345] Saving newly generated mlir file to /home/amily/iree-turbine/iree/turbine/kernel/boo/driver/dump2/fused_op_mm_d7ff0a7e7059ec0cebffd1488a48dd840778c6f2_4112x2048xbfloat16_2048x2048xbfloat16/fused_op_mm_d7ff0a7e7059ec0cebffd1488a48dd840778c6f2_4112x2048xbfloat16_2048x2048xbfloat16.mlir
DEBUG 02-12 15:50:11 [launch.py:218] Compiling vmfb to cache: /home/amily/iree-turbine/iree/turbine/kernel/boo/driver/dump2/fused_op_mm_d7ff0a7e7059ec0cebffd1488a48dd840778c6f2_4112x2048xbfloat16_2048x2048xbfloat16/0831dbe5d0cf8f642aba5b8358bd979a07b4bf39.vmfb
DEBUG 02-12 15:50:12 [launch.py:193] Cached new module for hip:--iree-hal-target-backends=rocm;--iree-hip-target=mi300x
DEBUG 02-12 15:50:12 [launch.py:148] Cached new binary for hip:1:0
DEBUG 02-12 15:50:12 [launch.py:171] Launching cached binary for hip:1:0
DEBUG 02-12 15:50:12 [apply.py:119] Source module:
class <lambda>(torch.nn.Module):
    def forward(self, arg0_1: "bf16[128, 3, 3][9, 3, 1]", arg1_1: "bf16[128, 3, 1152][3456, 1152, 1]"):
         # File: /home/amily/iree-turbine/iree/turbine/kernel/boo/op_exports/aten.py:97 in forward, code: return func(*args, **kwargs)
        bmm: "bf16[128, 3, 1152][3456, 1152, 1]" = torch.ops.aten.bmm.default(arg0_1, arg1_1);  arg0_1 = arg1_1 = None
        return (bmm,)
        
DEBUG 02-12 15:50:12 [subgraph.py:98] pre-sort node_list: [bmm]
DEBUG 02-12 15:50:12 [subgraph.py:100] post-sort node_list: [bmm]
DEBUG 02-12 15:50:12 [apply.py:119] Decomposed module:
class <lambda>(torch.nn.Module):
    def forward(self, arg0_1: "bf16[128, 3, 3][9, 3, 1]", arg1_1: "bf16[128, 3, 1152][3456, 1152, 1]"):
        # No stacktrace found for following nodes
        bmm: "bf16[128, 3, 1152][3456, 1152, 1]" = torch.ops.aten.bmm.default(arg0_1, arg1_1);  arg0_1 = arg1_1 = None
        return (bmm,)
        
DEBUG 02-12 15:50:12 [graph.py:271] Got hash str 'eefaaab8b81670695e78c37cca7ef68ef964f70b' for GraphModule: 
 class GraphModule(torch.nn.Module):
    def forward(self, arg0_1: "bf16[128, 3, 3][9, 3, 1]", arg1_1: "bf16[128, 3, 1152][3456, 1152, 1]"):
        # No stacktrace found for following nodes
        bmm: "bf16[128, 3, 1152][3456, 1152, 1]" = torch.ops.aten.bmm.default(arg0_1, arg1_1);  arg0_1 = arg1_1 = None
        return (bmm,)
        
DEBUG 02-12 15:50:12 [apply.py:119] Post-fusion module:
class <lambda>(torch.nn.Module):
    def forward(self, arg0_1: "bf16[128, 3, 3][9, 3, 1]", arg1_1: "bf16[128, 3, 1152][3456, 1152, 1]"):
         # File: /home/amily/iree-turbine/iree/turbine/kernel/boo/op_exports/aten.py:97 in forward, code: return func(*args, **kwargs)
        fused_op_bmm_eefaaab8b81670695e78c37cca7ef68ef964f70b_128x3x3xbfloat16_128x3x1152xbfloat16: "bf16[128, 3, 1152][3456, 1152, 1]" = torch.ops.boo.fused_op_bmm_eefaaab8b81670695e78c37cca7ef68ef964f70b_128x3x3xbfloat16_128x3x1152xbfloat16(arg0_1, arg1_1);  arg0_1 = arg1_1 = None
        return (fused_op_bmm_eefaaab8b81670695e78c37cca7ef68ef964f70b_128x3x3xbfloat16_128x3x1152xbfloat16,)
        
DEBUG 02-12 15:50:12 [launch.py:345] Saving newly generated mlir file to /home/amily/iree-turbine/iree/turbine/kernel/boo/driver/dump2/fused_op_bmm_eefaaab8b81670695e78c37cca7ef68ef964f70b_128x3x3xbfloat16_128x3x1152xbfloat16/fused_op_bmm_eefaaab8b81670695e78c37cca7ef68ef964f70b_128x3x3xbfloat16_128x3x1152xbfloat16.mlir
DEBUG 02-12 15:50:12 [launch.py:218] Compiling vmfb to cache: /home/amily/iree-turbine/iree/turbine/kernel/boo/driver/dump2/fused_op_bmm_eefaaab8b81670695e78c37cca7ef68ef964f70b_128x3x3xbfloat16_128x3x1152xbfloat16/0831dbe5d0cf8f642aba5b8358bd979a07b4bf39.vmfb
DEBUG 02-12 15:50:12 [launch.py:193] Cached new module for hip:--iree-hal-target-backends=rocm;--iree-hip-target=mi300x
DEBUG 02-12 15:50:12 [launch.py:148] Cached new binary for hip:1:0
DEBUG 02-12 15:50:12 [launch.py:171] Launching cached binary for hip:1:0
DEBUG 02-12 15:50:12 [apply.py:119] Source module:
class <lambda>(torch.nn.Module):
    def forward(self, arg0_1: "bf16[576, 24576][1, 576]", arg1_1: "bf16[24576, 576][576, 1]"):
         # File: /home/amily/iree-turbine/iree/turbine/kernel/boo/op_exports/aten.py:97 in forward, code: return func(*args, **kwargs)
        mm: "bf16[576, 576][576, 1]" = torch.ops.aten.mm.default(arg0_1, arg1_1);  arg0_1 = arg1_1 = None
        return (mm,)
        
DEBUG 02-12 15:50:12 [subgraph.py:98] pre-sort node_list: [mm]
DEBUG 02-12 15:50:12 [subgraph.py:100] post-sort node_list: [mm]
DEBUG 02-12 15:50:12 [apply.py:119] Decomposed module:
class <lambda>(torch.nn.Module):
    def forward(self, arg0_1: "bf16[576, 24576][1, 576]", arg1_1: "bf16[24576, 576][576, 1]"):
        # No stacktrace found for following nodes
        mm: "bf16[576, 576][576, 1]" = torch.ops.aten.mm.default(arg0_1, arg1_1);  arg0_1 = arg1_1 = None
        return (mm,)
        
DEBUG 02-12 15:50:13 [graph.py:271] Got hash str '95358c015e70714804b90cf14af8f97478ea5eb2' for GraphModule: 
 class GraphModule(torch.nn.Module):
    def forward(self, arg0_1_boo: "bf16[24576, 576][576, 1]", arg1_1: "bf16[24576, 576][576, 1]"):
        # No stacktrace found for following nodes
        permute_default: "bf16[576, 24576][1, 576]" = torch.ops.aten.permute.default(arg0_1_boo, [1, 0]);  arg0_1_boo = None
        mm: "bf16[576, 576][576, 1]" = torch.ops.aten.mm.default(permute_default, arg1_1);  permute_default = arg1_1 = None
        return (mm,)
        
DEBUG 02-12 15:50:13 [apply.py:119] Post-fusion module:
class <lambda>(torch.nn.Module):
    def forward(self, arg0_1: "bf16[576, 24576][1, 576]", arg1_1: "bf16[24576, 576][576, 1]"):
         # File: /home/amily/iree-turbine/iree/turbine/kernel/boo/op_exports/aten.py:97 in forward, code: return func(*args, **kwargs)
        fused_op_mm_95358c015e70714804b90cf14af8f97478ea5eb2_24576x576xbfloat16_24576x576xbfloat16: "bf16[576, 576][576, 1]" = torch.ops.boo.fused_op_mm_95358c015e70714804b90cf14af8f97478ea5eb2_24576x576xbfloat16_24576x576xbfloat16(arg0_1, arg1_1);  arg0_1 = arg1_1 = None
        return (fused_op_mm_95358c015e70714804b90cf14af8f97478ea5eb2_24576x576xbfloat16_24576x576xbfloat16,)
        
DEBUG 02-12 15:50:13 [launch.py:345] Saving newly generated mlir file to /home/amily/iree-turbine/iree/turbine/kernel/boo/driver/dump2/fused_op_mm_95358c015e70714804b90cf14af8f97478ea5eb2_24576x576xbfloat16_24576x576xbfloat16/fused_op_mm_95358c015e70714804b90cf14af8f97478ea5eb2_24576x576xbfloat16_24576x576xbfloat16.mlir
DEBUG 02-12 15:50:13 [launch.py:218] Compiling vmfb to cache: /home/amily/iree-turbine/iree/turbine/kernel/boo/driver/dump2/fused_op_mm_95358c015e70714804b90cf14af8f97478ea5eb2_24576x576xbfloat16_24576x576xbfloat16/0831dbe5d0cf8f642aba5b8358bd979a07b4bf39.vmfb
DEBUG 02-12 15:50:13 [launch.py:193] Cached new module for hip:--iree-hal-target-backends=rocm;--iree-hip-target=mi300x
DEBUG 02-12 15:50:13 [launch.py:148] Cached new binary for hip:1:0
DEBUG 02-12 15:50:13 [launch.py:171] Launching cached binary for hip:1:0
DEBUG 02-12 15:50:13 [apply.py:119] Source module:
class <lambda>(torch.nn.Module):
    def forward(self, arg0_1: "bf16[512, 24576][1, 512]", arg1_1: "bf16[24576, 304][304, 1]"):
         # File: /home/amily/iree-turbine/iree/turbine/kernel/boo/op_exports/aten.py:97 in forward, code: return func(*args, **kwargs)
        mm: "bf16[512, 304][304, 1]" = torch.ops.aten.mm.default(arg0_1, arg1_1);  arg0_1 = arg1_1 = None
        return (mm,)
        
DEBUG 02-12 15:50:13 [subgraph.py:98] pre-sort node_list: [mm]
DEBUG 02-12 15:50:13 [subgraph.py:100] post-sort node_list: [mm]
DEBUG 02-12 15:50:13 [apply.py:119] Decomposed module:
class <lambda>(torch.nn.Module):
    def forward(self, arg0_1: "bf16[512, 24576][1, 512]", arg1_1: "bf16[24576, 304][304, 1]"):
        # No stacktrace found for following nodes
        mm: "bf16[512, 304][304, 1]" = torch.ops.aten.mm.default(arg0_1, arg1_1);  arg0_1 = arg1_1 = None
        return (mm,)
        
DEBUG 02-12 15:50:13 [graph.py:271] Got hash str '72c64e78427da21ca3ecc5f3006f3455d785214d' for GraphModule: 
 class GraphModule(torch.nn.Module):
    def forward(self, arg0_1_boo: "bf16[24576, 512][512, 1]", arg1_1: "bf16[24576, 304][304, 1]"):
        # No stacktrace found for following nodes
        permute_default: "bf16[512, 24576][1, 512]" = torch.ops.aten.permute.default(arg0_1_boo, [1, 0]);  arg0_1_boo = None
        mm: "bf16[512, 304][304, 1]" = torch.ops.aten.mm.default(permute_default, arg1_1);  permute_default = arg1_1 = None
        return (mm,)
        
DEBUG 02-12 15:50:13 [apply.py:119] Post-fusion module:
class <lambda>(torch.nn.Module):
    def forward(self, arg0_1: "bf16[512, 24576][1, 512]", arg1_1: "bf16[24576, 304][304, 1]"):
         # File: /home/amily/iree-turbine/iree/turbine/kernel/boo/op_exports/aten.py:97 in forward, code: return func(*args, **kwargs)
        fused_op_mm_72c64e78427da21ca3ecc5f3006f3455d785214d_24576x512xbfloat16_24576x304xbfloat16: "bf16[512, 304][304, 1]" = torch.ops.boo.fused_op_mm_72c64e78427da21ca3ecc5f3006f3455d785214d_24576x512xbfloat16_24576x304xbfloat16(arg0_1, arg1_1);  arg0_1 = arg1_1 = None
        return (fused_op_mm_72c64e78427da21ca3ecc5f3006f3455d785214d_24576x512xbfloat16_24576x304xbfloat16,)
        
DEBUG 02-12 15:50:13 [launch.py:345] Saving newly generated mlir file to /home/amily/iree-turbine/iree/turbine/kernel/boo/driver/dump2/fused_op_mm_72c64e78427da21ca3ecc5f3006f3455d785214d_24576x512xbfloat16_24576x304xbfloat16/fused_op_mm_72c64e78427da21ca3ecc5f3006f3455d785214d_24576x512xbfloat16_24576x304xbfloat16.mlir
DEBUG 02-12 15:50:13 [launch.py:218] Compiling vmfb to cache: /home/amily/iree-turbine/iree/turbine/kernel/boo/driver/dump2/fused_op_mm_72c64e78427da21ca3ecc5f3006f3455d785214d_24576x512xbfloat16_24576x304xbfloat16/0831dbe5d0cf8f642aba5b8358bd979a07b4bf39.vmfb
DEBUG 02-12 15:50:14 [launch.py:193] Cached new module for hip:--iree-hal-target-backends=rocm;--iree-hip-target=mi300x
DEBUG 02-12 15:50:14 [launch.py:148] Cached new binary for hip:1:0
DEBUG 02-12 15:50:14 [launch.py:171] Launching cached binary for hip:1:0
DEBUG 02-12 15:50:14 [apply.py:119] Source module:
class <lambda>(torch.nn.Module):
    def forward(self, arg0_1: "bf16[32, 576][576, 1]", arg1_1: "bf16[576, 576][576, 1]"):
         # File: /home/amily/iree-turbine/iree/turbine/kernel/boo/op_exports/aten.py:97 in forward, code: return func(*args, **kwargs)
        mm: "bf16[32, 576][576, 1]" = torch.ops.aten.mm.default(arg0_1, arg1_1);  arg0_1 = arg1_1 = None
        return (mm,)
        
DEBUG 02-12 15:50:14 [subgraph.py:98] pre-sort node_list: [mm]
DEBUG 02-12 15:50:14 [subgraph.py:100] post-sort node_list: [mm]
DEBUG 02-12 15:50:14 [apply.py:119] Decomposed module:
class <lambda>(torch.nn.Module):
    def forward(self, arg0_1: "bf16[32, 576][576, 1]", arg1_1: "bf16[576, 576][576, 1]"):
        # No stacktrace found for following nodes
        mm: "bf16[32, 576][576, 1]" = torch.ops.aten.mm.default(arg0_1, arg1_1);  arg0_1 = arg1_1 = None
        return (mm,)
        
DEBUG 02-12 15:50:14 [graph.py:271] Got hash str 'ca2ec2da43ebbe4d9bbd5e61eff7124442eab073' for GraphModule: 
 class GraphModule(torch.nn.Module):
    def forward(self, arg0_1: "bf16[32, 576][576, 1]", arg1_1: "bf16[576, 576][576, 1]"):
        # No stacktrace found for following nodes
        mm: "bf16[32, 576][576, 1]" = torch.ops.aten.mm.default(arg0_1, arg1_1);  arg0_1 = arg1_1 = None
        return (mm,)
        
DEBUG 02-12 15:50:14 [apply.py:119] Post-fusion module:
class <lambda>(torch.nn.Module):
    def forward(self, arg0_1: "bf16[32, 576][576, 1]", arg1_1: "bf16[576, 576][576, 1]"):
         # File: /home/amily/iree-turbine/iree/turbine/kernel/boo/op_exports/aten.py:97 in forward, code: return func(*args, **kwargs)
        fused_op_mm_ca2ec2da43ebbe4d9bbd5e61eff7124442eab073_32x576xbfloat16_576x576xbfloat16: "bf16[32, 576][576, 1]" = torch.ops.boo.fused_op_mm_ca2ec2da43ebbe4d9bbd5e61eff7124442eab073_32x576xbfloat16_576x576xbfloat16(arg0_1, arg1_1);  arg0_1 = arg1_1 = None
        return (fused_op_mm_ca2ec2da43ebbe4d9bbd5e61eff7124442eab073_32x576xbfloat16_576x576xbfloat16,)
        
DEBUG 02-12 15:50:14 [launch.py:345] Saving newly generated mlir file to /home/amily/iree-turbine/iree/turbine/kernel/boo/driver/dump2/fused_op_mm_ca2ec2da43ebbe4d9bbd5e61eff7124442eab073_32x576xbfloat16_576x576xbfloat16/fused_op_mm_ca2ec2da43ebbe4d9bbd5e61eff7124442eab073_32x576xbfloat16_576x576xbfloat16.mlir
DEBUG 02-12 15:50:14 [launch.py:218] Compiling vmfb to cache: /home/amily/iree-turbine/iree/turbine/kernel/boo/driver/dump2/fused_op_mm_ca2ec2da43ebbe4d9bbd5e61eff7124442eab073_32x576xbfloat16_576x576xbfloat16/0831dbe5d0cf8f642aba5b8358bd979a07b4bf39.vmfb
DEBUG 02-12 15:50:15 [launch.py:193] Cached new module for hip:--iree-hal-target-backends=rocm;--iree-hip-target=mi300x
DEBUG 02-12 15:50:15 [launch.py:148] Cached new binary for hip:1:0
DEBUG 02-12 15:50:15 [launch.py:171] Launching cached binary for hip:1:0
DEBUG 02-12 15:50:15 [apply.py:119] Source module:
class <lambda>(torch.nn.Module):
    def forward(self, arg0_1: "bf16[24576, 576][576, 1]", arg1_1: "bf16[576, 2048][2048, 1]"):
         # File: /home/amily/iree-turbine/iree/turbine/kernel/boo/op_exports/aten.py:97 in forward, code: return func(*args, **kwargs)
        mm: "bf16[24576, 2048][2048, 1]" = torch.ops.aten.mm.default(arg0_1, arg1_1);  arg0_1 = arg1_1 = None
        return (mm,)
        
DEBUG 02-12 15:50:15 [subgraph.py:98] pre-sort node_list: [mm]
DEBUG 02-12 15:50:15 [subgraph.py:100] post-sort node_list: [mm]
DEBUG 02-12 15:50:15 [apply.py:119] Decomposed module:
class <lambda>(torch.nn.Module):
    def forward(self, arg0_1: "bf16[24576, 576][576, 1]", arg1_1: "bf16[576, 2048][2048, 1]"):
        # No stacktrace found for following nodes
        mm: "bf16[24576, 2048][2048, 1]" = torch.ops.aten.mm.default(arg0_1, arg1_1);  arg0_1 = arg1_1 = None
        return (mm,)
        
DEBUG 02-12 15:50:15 [graph.py:271] Got hash str 'ac54384c133573bdff81cc039475d74b1551682c' for GraphModule: 
 class GraphModule(torch.nn.Module):
    def forward(self, arg0_1: "bf16[24576, 576][576, 1]", arg1_1: "bf16[576, 2048][2048, 1]"):
        # No stacktrace found for following nodes
        mm: "bf16[24576, 2048][2048, 1]" = torch.ops.aten.mm.default(arg0_1, arg1_1);  arg0_1 = arg1_1 = None
        return (mm,)
        
DEBUG 02-12 15:50:15 [apply.py:119] Post-fusion module:
class <lambda>(torch.nn.Module):
    def forward(self, arg0_1: "bf16[24576, 576][576, 1]", arg1_1: "bf16[576, 2048][2048, 1]"):
         # File: /home/amily/iree-turbine/iree/turbine/kernel/boo/op_exports/aten.py:97 in forward, code: return func(*args, **kwargs)
        fused_op_mm_ac54384c133573bdff81cc039475d74b1551682c_24576x576xbfloat16_576x2048xbfloat16: "bf16[24576, 2048][2048, 1]" = torch.ops.boo.fused_op_mm_ac54384c133573bdff81cc039475d74b1551682c_24576x576xbfloat16_576x2048xbfloat16(arg0_1, arg1_1);  arg0_1 = arg1_1 = None
        return (fused_op_mm_ac54384c133573bdff81cc039475d74b1551682c_24576x576xbfloat16_576x2048xbfloat16,)
        
DEBUG 02-12 15:50:15 [launch.py:345] Saving newly generated mlir file to /home/amily/iree-turbine/iree/turbine/kernel/boo/driver/dump2/fused_op_mm_ac54384c133573bdff81cc039475d74b1551682c_24576x576xbfloat16_576x2048xbfloat16/fused_op_mm_ac54384c133573bdff81cc039475d74b1551682c_24576x576xbfloat16_576x2048xbfloat16.mlir
DEBUG 02-12 15:50:15 [launch.py:218] Compiling vmfb to cache: /home/amily/iree-turbine/iree/turbine/kernel/boo/driver/dump2/fused_op_mm_ac54384c133573bdff81cc039475d74b1551682c_24576x576xbfloat16_576x2048xbfloat16/0831dbe5d0cf8f642aba5b8358bd979a07b4bf39.vmfb
DEBUG 02-12 15:50:16 [launch.py:193] Cached new module for hip:--iree-hal-target-backends=rocm;--iree-hip-target=mi300x
DEBUG 02-12 15:50:16 [launch.py:148] Cached new binary for hip:1:0
DEBUG 02-12 15:50:16 [launch.py:171] Launching cached binary for hip:1:0
DEBUG 02-12 15:50:16 [apply.py:119] Source module:
class <lambda>(torch.nn.Module):
    def forward(self, arg0_1: "bf16[24576, 576][576, 1]", arg1_1: "bf16[576, 576][576, 1]"):
         # File: /home/amily/iree-turbine/iree/turbine/kernel/boo/op_exports/aten.py:97 in forward, code: return func(*args, **kwargs)
        mm: "bf16[24576, 576][576, 1]" = torch.ops.aten.mm.default(arg0_1, arg1_1);  arg0_1 = arg1_1 = None
        return (mm,)
        
DEBUG 02-12 15:50:16 [subgraph.py:98] pre-sort node_list: [mm]
DEBUG 02-12 15:50:16 [subgraph.py:100] post-sort node_list: [mm]
DEBUG 02-12 15:50:16 [apply.py:119] Decomposed module:
class <lambda>(torch.nn.Module):
    def forward(self, arg0_1: "bf16[24576, 576][576, 1]", arg1_1: "bf16[576, 576][576, 1]"):
        # No stacktrace found for following nodes
        mm: "bf16[24576, 576][576, 1]" = torch.ops.aten.mm.default(arg0_1, arg1_1);  arg0_1 = arg1_1 = None
        return (mm,)
        
DEBUG 02-12 15:50:16 [graph.py:271] Got hash str 'ba478daa0639a7b4715a50ceff8a4c6770caa9f2' for GraphModule: 
 class GraphModule(torch.nn.Module):
    def forward(self, arg0_1: "bf16[24576, 576][576, 1]", arg1_1: "bf16[576, 576][576, 1]"):
        # No stacktrace found for following nodes
        mm: "bf16[24576, 576][576, 1]" = torch.ops.aten.mm.default(arg0_1, arg1_1);  arg0_1 = arg1_1 = None
        return (mm,)
        
DEBUG 02-12 15:50:16 [apply.py:119] Post-fusion module:
class <lambda>(torch.nn.Module):
    def forward(self, arg0_1: "bf16[24576, 576][576, 1]", arg1_1: "bf16[576, 576][576, 1]"):
         # File: /home/amily/iree-turbine/iree/turbine/kernel/boo/op_exports/aten.py:97 in forward, code: return func(*args, **kwargs)
        fused_op_mm_ba478daa0639a7b4715a50ceff8a4c6770caa9f2_24576x576xbfloat16_576x576xbfloat16: "bf16[24576, 576][576, 1]" = torch.ops.boo.fused_op_mm_ba478daa0639a7b4715a50ceff8a4c6770caa9f2_24576x576xbfloat16_576x576xbfloat16(arg0_1, arg1_1);  arg0_1 = arg1_1 = None
        return (fused_op_mm_ba478daa0639a7b4715a50ceff8a4c6770caa9f2_24576x576xbfloat16_576x576xbfloat16,)
        
DEBUG 02-12 15:50:16 [launch.py:345] Saving newly generated mlir file to /home/amily/iree-turbine/iree/turbine/kernel/boo/driver/dump2/fused_op_mm_ba478daa0639a7b4715a50ceff8a4c6770caa9f2_24576x576xbfloat16_576x576xbfloat16/fused_op_mm_ba478daa0639a7b4715a50ceff8a4c6770caa9f2_24576x576xbfloat16_576x576xbfloat16.mlir
DEBUG 02-12 15:50:16 [launch.py:218] Compiling vmfb to cache: /home/amily/iree-turbine/iree/turbine/kernel/boo/driver/dump2/fused_op_mm_ba478daa0639a7b4715a50ceff8a4c6770caa9f2_24576x576xbfloat16_576x576xbfloat16/0831dbe5d0cf8f642aba5b8358bd979a07b4bf39.vmfb
DEBUG 02-12 15:50:17 [launch.py:193] Cached new module for hip:--iree-hal-target-backends=rocm;--iree-hip-target=mi300x
DEBUG 02-12 15:50:17 [launch.py:148] Cached new binary for hip:1:0
DEBUG 02-12 15:50:17 [launch.py:171] Launching cached binary for hip:1:0
DEBUG 02-12 15:50:17 [apply.py:119] Source module:
class <lambda>(torch.nn.Module):
    def forward(self, arg0_1: "bf16[128, 3, 3][9, 3, 1]", arg1_1: "bf16[128, 3, 2304][6912, 2304, 1]"):
         # File: /home/amily/iree-turbine/iree/turbine/kernel/boo/op_exports/aten.py:97 in forward, code: return func(*args, **kwargs)
        bmm: "bf16[128, 3, 2304][6912, 2304, 1]" = torch.ops.aten.bmm.default(arg0_1, arg1_1);  arg0_1 = arg1_1 = None
        return (bmm,)
        
DEBUG 02-12 15:50:17 [subgraph.py:98] pre-sort node_list: [bmm]
DEBUG 02-12 15:50:17 [subgraph.py:100] post-sort node_list: [bmm]
DEBUG 02-12 15:50:17 [apply.py:119] Decomposed module:
class <lambda>(torch.nn.Module):
    def forward(self, arg0_1: "bf16[128, 3, 3][9, 3, 1]", arg1_1: "bf16[128, 3, 2304][6912, 2304, 1]"):
        # No stacktrace found for following nodes
        bmm: "bf16[128, 3, 2304][6912, 2304, 1]" = torch.ops.aten.bmm.default(arg0_1, arg1_1);  arg0_1 = arg1_1 = None
        return (bmm,)
        
DEBUG 02-12 15:50:17 [graph.py:271] Got hash str '1a7564bf3b08185140366688ca1b76562becba68' for GraphModule: 
 class GraphModule(torch.nn.Module):
    def forward(self, arg0_1: "bf16[128, 3, 3][9, 3, 1]", arg1_1: "bf16[128, 3, 2304][6912, 2304, 1]"):
        # No stacktrace found for following nodes
        bmm: "bf16[128, 3, 2304][6912, 2304, 1]" = torch.ops.aten.bmm.default(arg0_1, arg1_1);  arg0_1 = arg1_1 = None
        return (bmm,)
        
DEBUG 02-12 15:50:17 [apply.py:119] Post-fusion module:
class <lambda>(torch.nn.Module):
    def forward(self, arg0_1: "bf16[128, 3, 3][9, 3, 1]", arg1_1: "bf16[128, 3, 2304][6912, 2304, 1]"):
         # File: /home/amily/iree-turbine/iree/turbine/kernel/boo/op_exports/aten.py:97 in forward, code: return func(*args, **kwargs)
        fused_op_bmm_1a7564bf3b08185140366688ca1b76562becba68_128x3x3xbfloat16_128x3x2304xbfloat16: "bf16[128, 3, 2304][6912, 2304, 1]" = torch.ops.boo.fused_op_bmm_1a7564bf3b08185140366688ca1b76562becba68_128x3x3xbfloat16_128x3x2304xbfloat16(arg0_1, arg1_1);  arg0_1 = arg1_1 = None
        return (fused_op_bmm_1a7564bf3b08185140366688ca1b76562becba68_128x3x3xbfloat16_128x3x2304xbfloat16,)
        
DEBUG 02-12 15:50:17 [launch.py:345] Saving newly generated mlir file to /home/amily/iree-turbine/iree/turbine/kernel/boo/driver/dump2/fused_op_bmm_1a7564bf3b08185140366688ca1b76562becba68_128x3x3xbfloat16_128x3x2304xbfloat16/fused_op_bmm_1a7564bf3b08185140366688ca1b76562becba68_128x3x3xbfloat16_128x3x2304xbfloat16.mlir
DEBUG 02-12 15:50:17 [launch.py:218] Compiling vmfb to cache: /home/amily/iree-turbine/iree/turbine/kernel/boo/driver/dump2/fused_op_bmm_1a7564bf3b08185140366688ca1b76562becba68_128x3x3xbfloat16_128x3x2304xbfloat16/0831dbe5d0cf8f642aba5b8358bd979a07b4bf39.vmfb
DEBUG 02-12 15:50:17 [launch.py:193] Cached new module for hip:--iree-hal-target-backends=rocm;--iree-hip-target=mi300x
DEBUG 02-12 15:50:17 [launch.py:148] Cached new binary for hip:1:0
DEBUG 02-12 15:50:17 [launch.py:171] Launching cached binary for hip:1:0
DEBUG 02-12 15:50:17 [apply.py:119] Source module:
class <lambda>(torch.nn.Module):
    def forward(self, arg0_1: "bf16[576, 528][1, 576]", arg1_1: "bf16[528, 576][576, 1]"):
         # File: /home/amily/iree-turbine/iree/turbine/kernel/boo/op_exports/aten.py:97 in forward, code: return func(*args, **kwargs)
        mm: "bf16[576, 576][576, 1]" = torch.ops.aten.mm.default(arg0_1, arg1_1);  arg0_1 = arg1_1 = None
        return (mm,)
        
DEBUG 02-12 15:50:17 [subgraph.py:98] pre-sort node_list: [mm]
DEBUG 02-12 15:50:17 [subgraph.py:100] post-sort node_list: [mm]
DEBUG 02-12 15:50:17 [apply.py:119] Decomposed module:
class <lambda>(torch.nn.Module):
    def forward(self, arg0_1: "bf16[576, 528][1, 576]", arg1_1: "bf16[528, 576][576, 1]"):
        # No stacktrace found for following nodes
        mm: "bf16[576, 576][576, 1]" = torch.ops.aten.mm.default(arg0_1, arg1_1);  arg0_1 = arg1_1 = None
        return (mm,)
        
DEBUG 02-12 15:50:17 [graph.py:271] Got hash str 'de35605025a8f9c5459445edc75c67bef30aaf3a' for GraphModule: 
 class GraphModule(torch.nn.Module):
    def forward(self, arg0_1_boo: "bf16[528, 576][576, 1]", arg1_1: "bf16[528, 576][576, 1]"):
        # No stacktrace found for following nodes
        permute_default: "bf16[576, 528][1, 576]" = torch.ops.aten.permute.default(arg0_1_boo, [1, 0]);  arg0_1_boo = None
        mm: "bf16[576, 576][576, 1]" = torch.ops.aten.mm.default(permute_default, arg1_1);  permute_default = arg1_1 = None
        return (mm,)
        
DEBUG 02-12 15:50:17 [apply.py:119] Post-fusion module:
class <lambda>(torch.nn.Module):
    def forward(self, arg0_1: "bf16[576, 528][1, 576]", arg1_1: "bf16[528, 576][576, 1]"):
         # File: /home/amily/iree-turbine/iree/turbine/kernel/boo/op_exports/aten.py:97 in forward, code: return func(*args, **kwargs)
        fused_op_mm_de35605025a8f9c5459445edc75c67bef30aaf3a_528x576xbfloat16_528x576xbfloat16: "bf16[576, 576][576, 1]" = torch.ops.boo.fused_op_mm_de35605025a8f9c5459445edc75c67bef30aaf3a_528x576xbfloat16_528x576xbfloat16(arg0_1, arg1_1);  arg0_1 = arg1_1 = None
        return (fused_op_mm_de35605025a8f9c5459445edc75c67bef30aaf3a_528x576xbfloat16_528x576xbfloat16,)
        
DEBUG 02-12 15:50:17 [launch.py:345] Saving newly generated mlir file to /home/amily/iree-turbine/iree/turbine/kernel/boo/driver/dump2/fused_op_mm_de35605025a8f9c5459445edc75c67bef30aaf3a_528x576xbfloat16_528x576xbfloat16/fused_op_mm_de35605025a8f9c5459445edc75c67bef30aaf3a_528x576xbfloat16_528x576xbfloat16.mlir
DEBUG 02-12 15:50:17 [launch.py:218] Compiling vmfb to cache: /home/amily/iree-turbine/iree/turbine/kernel/boo/driver/dump2/fused_op_mm_de35605025a8f9c5459445edc75c67bef30aaf3a_528x576xbfloat16_528x576xbfloat16/0831dbe5d0cf8f642aba5b8358bd979a07b4bf39.vmfb
DEBUG 02-12 15:50:18 [launch.py:193] Cached new module for hip:--iree-hal-target-backends=rocm;--iree-hip-target=mi300x
DEBUG 02-12 15:50:18 [launch.py:148] Cached new binary for hip:1:0
DEBUG 02-12 15:50:18 [launch.py:171] Launching cached binary for hip:1:0
DEBUG 02-12 15:50:18 [apply.py:119] Source module:
class <lambda>(torch.nn.Module):
    def forward(self, arg0_1: "bf16[528, 576][576, 1]", arg1_1: "bf16[576, 576][576, 1]"):
         # File: /home/amily/iree-turbine/iree/turbine/kernel/boo/op_exports/aten.py:97 in forward, code: return func(*args, **kwargs)
        mm: "bf16[528, 576][576, 1]" = torch.ops.aten.mm.default(arg0_1, arg1_1);  arg0_1 = arg1_1 = None
        return (mm,)
        
DEBUG 02-12 15:50:18 [subgraph.py:98] pre-sort node_list: [mm]
DEBUG 02-12 15:50:18 [subgraph.py:100] post-sort node_list: [mm]
DEBUG 02-12 15:50:18 [apply.py:119] Decomposed module:
class <lambda>(torch.nn.Module):
    def forward(self, arg0_1: "bf16[528, 576][576, 1]", arg1_1: "bf16[576, 576][576, 1]"):
        # No stacktrace found for following nodes
        mm: "bf16[528, 576][576, 1]" = torch.ops.aten.mm.default(arg0_1, arg1_1);  arg0_1 = arg1_1 = None
        return (mm,)
        
DEBUG 02-12 15:50:18 [graph.py:271] Got hash str '706401d89e769174af3201d333a5f92cd02ebd07' for GraphModule: 
 class GraphModule(torch.nn.Module):
    def forward(self, arg0_1: "bf16[528, 576][576, 1]", arg1_1: "bf16[576, 576][576, 1]"):
        # No stacktrace found for following nodes
        mm: "bf16[528, 576][576, 1]" = torch.ops.aten.mm.default(arg0_1, arg1_1);  arg0_1 = arg1_1 = None
        return (mm,)
        
DEBUG 02-12 15:50:18 [apply.py:119] Post-fusion module:
class <lambda>(torch.nn.Module):
    def forward(self, arg0_1: "bf16[528, 576][576, 1]", arg1_1: "bf16[576, 576][576, 1]"):
         # File: /home/amily/iree-turbine/iree/turbine/kernel/boo/op_exports/aten.py:97 in forward, code: return func(*args, **kwargs)
        fused_op_mm_706401d89e769174af3201d333a5f92cd02ebd07_528x576xbfloat16_576x576xbfloat16: "bf16[528, 576][576, 1]" = torch.ops.boo.fused_op_mm_706401d89e769174af3201d333a5f92cd02ebd07_528x576xbfloat16_576x576xbfloat16(arg0_1, arg1_1);  arg0_1 = arg1_1 = None
        return (fused_op_mm_706401d89e769174af3201d333a5f92cd02ebd07_528x576xbfloat16_576x576xbfloat16,)
        
DEBUG 02-12 15:50:18 [launch.py:345] Saving newly generated mlir file to /home/amily/iree-turbine/iree/turbine/kernel/boo/driver/dump2/fused_op_mm_706401d89e769174af3201d333a5f92cd02ebd07_528x576xbfloat16_576x576xbfloat16/fused_op_mm_706401d89e769174af3201d333a5f92cd02ebd07_528x576xbfloat16_576x576xbfloat16.mlir
DEBUG 02-12 15:50:18 [launch.py:218] Compiling vmfb to cache: /home/amily/iree-turbine/iree/turbine/kernel/boo/driver/dump2/fused_op_mm_706401d89e769174af3201d333a5f92cd02ebd07_528x576xbfloat16_576x576xbfloat16/0831dbe5d0cf8f642aba5b8358bd979a07b4bf39.vmfb
DEBUG 02-12 15:50:18 [launch.py:193] Cached new module for hip:--iree-hal-target-backends=rocm;--iree-hip-target=mi300x
DEBUG 02-12 15:50:18 [launch.py:148] Cached new binary for hip:1:0
DEBUG 02-12 15:50:18 [launch.py:171] Launching cached binary for hip:1:0
DEBUG 02-12 15:50:18 [apply.py:119] Source module:
class <lambda>(torch.nn.Module):
    def forward(self, arg0_1: "bf16[2048, 24576][1, 2048]", arg1_1: "bf16[24576, 576][576, 1]"):
         # File: /home/amily/iree-turbine/iree/turbine/kernel/boo/op_exports/aten.py:97 in forward, code: return func(*args, **kwargs)
        mm: "bf16[2048, 576][576, 1]" = torch.ops.aten.mm.default(arg0_1, arg1_1);  arg0_1 = arg1_1 = None
        return (mm,)
        
DEBUG 02-12 15:50:18 [subgraph.py:98] pre-sort node_list: [mm]
DEBUG 02-12 15:50:18 [subgraph.py:100] post-sort node_list: [mm]
DEBUG 02-12 15:50:18 [apply.py:119] Decomposed module:
class <lambda>(torch.nn.Module):
    def forward(self, arg0_1: "bf16[2048, 24576][1, 2048]", arg1_1: "bf16[24576, 576][576, 1]"):
        # No stacktrace found for following nodes
        mm: "bf16[2048, 576][576, 1]" = torch.ops.aten.mm.default(arg0_1, arg1_1);  arg0_1 = arg1_1 = None
        return (mm,)
        
DEBUG 02-12 15:50:18 [graph.py:271] Got hash str '626935bd802e60bdf0770c7b73b3208c47f3ab13' for GraphModule: 
 class GraphModule(torch.nn.Module):
    def forward(self, arg0_1_boo: "bf16[24576, 2048][2048, 1]", arg1_1: "bf16[24576, 576][576, 1]"):
        # No stacktrace found for following nodes
        permute_default: "bf16[2048, 24576][1, 2048]" = torch.ops.aten.permute.default(arg0_1_boo, [1, 0]);  arg0_1_boo = None
        mm: "bf16[2048, 576][576, 1]" = torch.ops.aten.mm.default(permute_default, arg1_1);  permute_default = arg1_1 = None
        return (mm,)
        
DEBUG 02-12 15:50:18 [apply.py:119] Post-fusion module:
class <lambda>(torch.nn.Module):
    def forward(self, arg0_1: "bf16[2048, 24576][1, 2048]", arg1_1: "bf16[24576, 576][576, 1]"):
         # File: /home/amily/iree-turbine/iree/turbine/kernel/boo/op_exports/aten.py:97 in forward, code: return func(*args, **kwargs)
        fused_op_mm_626935bd802e60bdf0770c7b73b3208c47f3ab13_24576x2048xbfloat16_24576x576xbfloat16: "bf16[2048, 576][576, 1]" = torch.ops.boo.fused_op_mm_626935bd802e60bdf0770c7b73b3208c47f3ab13_24576x2048xbfloat16_24576x576xbfloat16(arg0_1, arg1_1);  arg0_1 = arg1_1 = None
        return (fused_op_mm_626935bd802e60bdf0770c7b73b3208c47f3ab13_24576x2048xbfloat16_24576x576xbfloat16,)
        
DEBUG 02-12 15:50:18 [launch.py:345] Saving newly generated mlir file to /home/amily/iree-turbine/iree/turbine/kernel/boo/driver/dump2/fused_op_mm_626935bd802e60bdf0770c7b73b3208c47f3ab13_24576x2048xbfloat16_24576x576xbfloat16/fused_op_mm_626935bd802e60bdf0770c7b73b3208c47f3ab13_24576x2048xbfloat16_24576x576xbfloat16.mlir
DEBUG 02-12 15:50:18 [launch.py:218] Compiling vmfb to cache: /home/amily/iree-turbine/iree/turbine/kernel/boo/driver/dump2/fused_op_mm_626935bd802e60bdf0770c7b73b3208c47f3ab13_24576x2048xbfloat16_24576x576xbfloat16/0831dbe5d0cf8f642aba5b8358bd979a07b4bf39.vmfb
DEBUG 02-12 15:50:19 [launch.py:193] Cached new module for hip:--iree-hal-target-backends=rocm;--iree-hip-target=mi300x
DEBUG 02-12 15:50:19 [launch.py:148] Cached new binary for hip:1:0
DEBUG 02-12 15:50:19 [launch.py:171] Launching cached binary for hip:1:0
DEBUG 02-12 15:50:19 [apply.py:119] Source module:
class <lambda>(torch.nn.Module):
…
DEBUG 02-12 15:52:59 [launch.py:218] Compiling vmfb to cache: /home/amily/iree-turbine/iree/turbine/kernel/boo/driver/dump2/fused_op_mm_0b4492b63d99c96a5ec207ec465d266db4cc00d2_1280x576xbfloat16_576x576xbfloat16/0831dbe5d0cf8f642aba5b8358bd979a07b4bf39.vmfb
DEBUG 02-12 15:52:59 [launch.py:193] Cached new module for hip:--iree-hal-target-backends=rocm;--iree-hip-target=mi300x
DEBUG 02-12 15:52:59 [launch.py:148] Cached new binary for hip:1:0
DEBUG 02-12 15:52:59 [launch.py:171] Launching cached binary for hip:1:0
DEBUG 02-12 15:52:59 [apply.py:119] Source module:
class <lambda>(torch.nn.Module):
    def forward(self, arg0_1: "bf16[384][1]", arg1_1: "bf16[5, 384][384, 1]", arg2_1: "bf16[384, 384][1, 384]"):
         # File: /home/amily/iree-turbine/iree/turbine/kernel/boo/op_exports/aten.py:97 in forward, code: return func(*args, **kwargs)
        addmm: "bf16[5, 384][384, 1]" = torch.ops.aten.addmm.default(arg0_1, arg1_1, arg2_1);  arg0_1 = arg1_1 = arg2_1 = None
        return (addmm,)
        
DEBUG 02-12 15:52:59 [subgraph.py:98] pre-sort node_list: [addmm]
DEBUG 02-12 15:52:59 [subgraph.py:100] post-sort node_list: [addmm]
DEBUG 02-12 15:52:59 [apply.py:119] Decomposed module:
class <lambda>(torch.nn.Module):
    def forward(self, arg0_1: "bf16[384][1]", arg1_1: "bf16[5, 384][384, 1]", arg2_1: "bf16[384, 384][1, 384]"):
        # No stacktrace found for following nodes
        convert_element_type: "f32[384][1]" = torch.ops.prims.convert_element_type.default(arg0_1, torch.float32);  arg0_1 = None
        convert_element_type_1: "f32[5, 384][384, 1]" = torch.ops.prims.convert_element_type.default(arg1_1, torch.float32);  arg1_1 = None
        convert_element_type_2: "f32[384, 384][1, 384]" = torch.ops.prims.convert_element_type.default(arg2_1, torch.float32);  arg2_1 = None
        mm: "f32[5, 384][384, 1]" = torch.ops.aten.mm.default(convert_element_type_1, convert_element_type_2);  convert_element_type_1 = convert_element_type_2 = None
        mul: "f32[5, 384][384, 1]" = torch.ops.aten.mul.Tensor(mm, 1);  mm = None
        mul_1: "f32[384][1]" = torch.ops.aten.mul.Tensor(convert_element_type, 1);  convert_element_type = None
        add: "f32[5, 384][384, 1]" = torch.ops.aten.add.Tensor(mul, mul_1);  mul = mul_1 = None
        convert_element_type_3: "bf16[5, 384][384, 1]" = torch.ops.prims.convert_element_type.default(add, torch.bfloat16);  add = None
        return (convert_element_type_3,)
        
DEBUG 02-12 15:52:59 [graph.py:271] Got hash str '4914ac71e076cc6c1c2549b3adc901cd5564dfab' for GraphModule: 
 class GraphModule(torch.nn.Module):
    def forward(self, arg0_1: "bf16[384][1]", arg1_1: "bf16[5, 384][384, 1]", arg2_1_boo: "bf16[384, 384][384, 1]"):
        # No stacktrace found for following nodes
        permute_default: "bf16[384, 384][1, 384]" = torch.ops.aten.permute.default(arg2_1_boo, [1, 0]);  arg2_1_boo = None
        convert_element_type: "f32[384][1]" = torch.ops.prims.convert_element_type.default(arg0_1, torch.float32);  arg0_1 = None
        convert_element_type_1: "f32[5, 384][384, 1]" = torch.ops.prims.convert_element_type.default(arg1_1, torch.float32);  arg1_1 = None
        convert_element_type_2: "f32[384, 384][1, 384]" = torch.ops.prims.convert_element_type.default(permute_default, torch.float32);  permute_default = None
        mm: "f32[5, 384][384, 1]" = torch.ops.aten.mm.default(convert_element_type_1, convert_element_type_2);  convert_element_type_1 = convert_element_type_2 = None
        mul: "f32[5, 384][384, 1]" = torch.ops.aten.mul.Tensor(mm, 1);  mm = None
        mul_1: "f32[384][1]" = torch.ops.aten.mul.Tensor(convert_element_type, 1);  convert_element_type = None
        add: "f32[5, 384][384, 1]" = torch.ops.aten.add.Tensor(mul, mul_1);  mul = mul_1 = None
        convert_element_type_3: "bf16[5, 384][384, 1]" = torch.ops.prims.convert_element_type.default(add, torch.bfloat16);  add = None
        return (convert_element_type_3,)
        
DEBUG 02-12 15:52:59 [apply.py:119] Post-fusion module:
class <lambda>(torch.nn.Module):
    def forward(self, arg0_1: "bf16[384][1]", arg1_1: "bf16[5, 384][384, 1]", arg2_1: "bf16[384, 384][1, 384]"):
         # File: /home/amily/iree-turbine/iree/turbine/kernel/boo/op_exports/aten.py:97 in forward, code: return func(*args, **kwargs)
        fused_op_convert_el_convert_el_convert_el_mm_mul_mul_1_add_convert_el_4914ac71e076cc6c1c2549b3adc901cd5564dfab_384xbfloat16_5x384xbfloat16_384x384xbfloat16: "bf16[5, 384][384, 1]" = torch.ops.boo.fused_op_convert_el_convert_el_convert_el_mm_mul_mul_1_add_convert_el_4914ac71e076cc6c1c2549b3adc901cd5564dfab_384xbfloat16_5x384xbfloat16_384x384xbfloat16(arg0_1, arg1_1, arg2_1);  arg0_1 = arg1_1 = arg2_1 = None
        return (fused_op_convert_el_convert_el_convert_el_mm_mul_mul_1_add_convert_el_4914ac71e076cc6c1c2549b3adc901cd5564dfab_384xbfloat16_5x384xbfloat16_384x384xbfloat16,)
        
DEBUG 02-12 15:52:59 [launch.py:345] Saving newly generated mlir file to /home/amily/iree-turbine/iree/turbine/kernel/boo/driver/dump2/fused_op_convert_el_convert_el_convert_el_mm_mul_mul_1_add_convert_el_4914ac71e076cc6c1c2549b3adc901cd5564dfab_384xbfloat16_5x384xbfloat16_384x384xbfloat16/fused_op_convert_el_convert_el_convert_el_mm_mul_mul_1_add_convert_el_4914ac71e076cc6c1c2549b3adc901cd5564dfab_384xbfloat16_5x384xbfloat16_384x384xbfloat16.mlir
DEBUG 02-12 15:52:59 [launch.py:218] Compiling vmfb to cache: /home/amily/iree-turbine/iree/turbine/kernel/boo/driver/dump2/fused_op_convert_el_convert_el_convert_el_mm_mul_mul_1_add_convert_el_4914ac71e076cc6c1c2549b3adc901cd5564dfab_384xbfloat16_5x384xbfloat16_384x384xbfloat16/0831dbe5d0cf8f642aba5b8358bd979a07b4bf39.vmfb
DEBUG 02-12 15:53:00 [launch.py:193] Cached new module for hip:--iree-hal-target-backends=rocm;--iree-hip-target=mi300x
DEBUG 02-12 15:53:00 [launch.py:148] Cached new binary for hip:1:0
DEBUG 02-12 15:53:00 [launch.py:171] Launching cached binary for hip:1:0
DEBUG 02-12 15:53:00 [apply.py:119] Source module:
class <lambda>(torch.nn.Module):
    def forward(self, arg0_1: "bf16[960, 256][256, 1]", arg1_1: "bf16[256, 2048][2048, 1]"):
         # File: /home/amily/iree-turbine/iree/turbine/kernel/boo/op_exports/aten.py:97 in forward, code: return func(*args, **kwargs)
        mm: "bf16[960, 2048][2048, 1]" = torch.ops.aten.mm.default(arg0_1, arg1_1);  arg0_1 = arg1_1 = None
        return (mm,)
        
DEBUG 02-12 15:53:00 [subgraph.py:98] pre-sort node_list: [mm]
DEBUG 02-12 15:53:00 [subgraph.py:100] post-sort node_list: [mm]
DEBUG 02-12 15:53:00 [apply.py:119] Decomposed module:
class <lambda>(torch.nn.Module):
    def forward(self, arg0_1: "bf16[960, 256][256, 1]", arg1_1: "bf16[256, 2048][2048, 1]"):
        # No stacktrace found for following nodes
        mm: "bf16[960, 2048][2048, 1]" = torch.ops.aten.mm.default(arg0_1, arg1_1);  arg0_1 = arg1_1 = None
        return (mm,)
        
DEBUG 02-12 15:53:00 [graph.py:271] Got hash str '824940dd87d08de26566d77aea1d6636dfec0aa0' for GraphModule: 
 class GraphModule(torch.nn.Module):
    def forward(self, arg0_1: "bf16[960, 256][256, 1]", arg1_1: "bf16[256, 2048][2048, 1]"):
        # No stacktrace found for following nodes
        mm: "bf16[960, 2048][2048, 1]" = torch.ops.aten.mm.default(arg0_1, arg1_1);  arg0_1 = arg1_1 = None
        return (mm,)
        
DEBUG 02-12 15:53:00 [apply.py:119] Post-fusion module:
class <lambda>(torch.nn.Module):
    def forward(self, arg0_1: "bf16[960, 256][256, 1]", arg1_1: "bf16[256, 2048][2048, 1]"):
         # File: /home/amily/iree-turbine/iree/turbine/kernel/boo/op_exports/aten.py:97 in forward, code: return func(*args, **kwargs)
        fused_op_mm_824940dd87d08de26566d77aea1d6636dfec0aa0_960x256xbfloat16_256x2048xbfloat16: "bf16[960, 2048][2048, 1]" = torch.ops.boo.fused_op_mm_824940dd87d08de26566d77aea1d6636dfec0aa0_960x256xbfloat16_256x2048xbfloat16(arg0_1, arg1_1);  arg0_1 = arg1_1 = None
        return (fused_op_mm_824940dd87d08de26566d77aea1d6636dfec0aa0_960x256xbfloat16_256x2048xbfloat16,)
        
DEBUG 02-12 15:53:00 [launch.py:309] Loading cached mlir file at /home/amily/iree-turbine/iree/turbine/kernel/boo/driver/dump2/fused_op_mm_824940dd87d08de26566d77aea1d6636dfec0aa0_960x256xbfloat16_256x2048xbfloat16/fused_op_mm_824940dd87d08de26566d77aea1d6636dfec0aa0_960x256xbfloat16_256x2048xbfloat16.mlir
DEBUG 02-12 15:53:00 [launch.py:209] Loading vmfb from cache: /home/amily/iree-turbine/iree/turbine/kernel/boo/driver/dump2/fused_op_mm_824940dd87d08de26566d77aea1d6636dfec0aa0_960x256xbfloat16_256x2048xbfloat16/0831dbe5d0cf8f642aba5b8358bd979a07b4bf39.vmfb
Traceback (most recent call last):
  File "/home/amily/iree-turbine/iree/turbine/kernel/boo/driver/driver.py", line 188, in main
    prof = run(
           ^^^^
  File "/home/amily/iree-turbine/iree/turbine/kernel/boo/driver/driver.py", line 285, in run
    example_results = func(*per_device_args[0])
                      ^^^^^^^^^^^^^^^^^^^^^^^^^
  File "/home/amily/iree-turbine/iree/turbine/kernel/boo/exports/signature.py", line 76, in run_and_verify
    result = compiled(*args, **kwargs)
             ^^^^^^^^^^^^^^^^^^^^^^^^^
  File "/home/amily/iree-turbine/.venv/lib/python3.11/site-packages/torch/_dynamo/eval_frame.py", line 414, in __call__
    return super().__call__(*args, **kwargs)
           ^^^^^^^^^^^^^^^^^^^^^^^^^^^^^^^^^
  File "/home/amily/iree-turbine/.venv/lib/python3.11/site-packages/torch/nn/modules/module.py", line 1775, in _wrapped_call_impl
    return self._call_impl(*args, **kwargs)
           ^^^^^^^^^^^^^^^^^^^^^^^^^^^^^^^^
  File "/home/amily/iree-turbine/.venv/lib/python3.11/site-packages/torch/nn/modules/module.py", line 1786, in _call_impl
    return forward_call(*args, **kwargs)
           ^^^^^^^^^^^^^^^^^^^^^^^^^^^^^
  File "/home/amily/iree-turbine/.venv/lib/python3.11/site-packages/torch/_dynamo/eval_frame.py", line 832, in compile_wrapper
    return fn(*args, **kwargs)
           ^^^^^^^^^^^^^^^^^^^
  File "/home/amily/iree-turbine/.venv/lib/python3.11/site-packages/torch/nn/modules/module.py", line 1775, in _wrapped_call_impl
    return self._call_impl(*args, **kwargs)
           ^^^^^^^^^^^^^^^^^^^^^^^^^^^^^^^^
  File "/home/amily/iree-turbine/.venv/lib/python3.11/site-packages/torch/nn/modules/module.py", line 1786, in _call_impl
    return forward_call(*args, **kwargs)
           ^^^^^^^^^^^^^^^^^^^^^^^^^^^^^
  File "/home/amily/iree-turbine/iree/turbine/kernel/boo/op_exports/aten.py", line 96, in forward
    def forward(self, *args):
  File "/home/amily/iree-turbine/.venv/lib/python3.11/site-packages/torch/_dynamo/eval_frame.py", line 1044, in _fn
    return fn(*args, **kwargs)
           ^^^^^^^^^^^^^^^^^^^
  File "/home/amily/iree-turbine/.venv/lib/python3.11/site-packages/torch/_functorch/aot_autograd.py", line 1130, in forward
    return compiled_fn(full_args)
           ^^^^^^^^^^^^^^^^^^^^^^
  File "/home/amily/iree-turbine/.venv/lib/python3.11/site-packages/torch/_functorch/_aot_autograd/runtime_wrappers.py", line 353, in runtime_wrapper
    all_outs = call_func_at_runtime_with_args(
               ^^^^^^^^^^^^^^^^^^^^^^^^^^^^^^^
  File "/home/amily/iree-turbine/.venv/lib/python3.11/site-packages/torch/_functorch/_aot_autograd/utils.py", line 129, in call_func_at_runtime_with_args
    out = normalize_as_list(f(args))
                            ^^^^^^^
  File "/home/amily/iree-turbine/.venv/lib/python3.11/site-packages/torch/_functorch/_aot_autograd/runtime_wrappers.py", line 724, in inner_fn
    outs = compiled_fn(args)
           ^^^^^^^^^^^^^^^^^
  File "/home/amily/iree-turbine/.venv/lib/python3.11/site-packages/torch/_functorch/_aot_autograd/runtime_wrappers.py", line 526, in wrapper
    return compiled_fn(runtime_args)
           ^^^^^^^^^^^^^^^^^^^^^^^^^
  File "/home/amily/iree-turbine/.venv/lib/python3.11/site-packages/torch/_functorch/_aot_autograd/utils.py", line 103, in g
    return f(*args)
           ^^^^^^^^
  File "/home/amily/iree-turbine/.venv/lib/python3.11/site-packages/torch/fx/_lazy_graph_module.py", line 126, in _lazy_forward
    return self(*args, **kwargs)
           ^^^^^^^^^^^^^^^^^^^^^
  File "/home/amily/iree-turbine/.venv/lib/python3.11/site-packages/torch/fx/graph_module.py", line 837, in call_wrapped
    return self._wrapped_call(self, *args, **kwargs)
           ^^^^^^^^^^^^^^^^^^^^^^^^^^^^^^^^^^^^^^^^^
  File "/home/amily/iree-turbine/.venv/lib/python3.11/site-packages/torch/fx/graph_module.py", line 413, in __call__
    raise e
  File "/home/amily/iree-turbine/.venv/lib/python3.11/site-packages/torch/fx/graph_module.py", line 400, in __call__
    return super(self.cls, obj).__call__(*args, **kwargs)  # type: ignore[misc]
           ^^^^^^^^^^^^^^^^^^^^^^^^^^^^^^^^^^^^^^^^^^^^^^
  File "/home/amily/iree-turbine/.venv/lib/python3.11/site-packages/torch/nn/modules/module.py", line 1775, in _wrapped_call_impl
    return self._call_impl(*args, **kwargs)
           ^^^^^^^^^^^^^^^^^^^^^^^^^^^^^^^^
  File "/home/amily/iree-turbine/.venv/lib/python3.11/site-packages/torch/nn/modules/module.py", line 1786, in _call_impl
    return forward_call(*args, **kwargs)
           ^^^^^^^^^^^^^^^^^^^^^^^^^^^^^
  File "<eval_with_key>.1877 from /home/amily/iree-turbine/.venv/lib/python3.11/site-packages/torch/fx/experimental/proxy_tensor.py:1350 in wrapped", line 5, in forward
    fused_op_mm_824940dd87d08de26566d77aea1d6636dfec0aa0_960x256xbfloat16_256x2048xbfloat16 = torch.ops.boo.fused_op_mm_824940dd87d08de26566d77aea1d6636dfec0aa0_960x256xbfloat16_256x2048xbfloat16(arg0_1, arg1_1);  arg0_1 = arg1_1 = None
                                                                                              ^^^^^^^^^^^^^^^^^^^^^^^^^^^^^^^^^^^^^^^^^^^^^^^^^^^^^^^^^^^^^^^^^^^^^^^^^^^^^^^^^^^^^^^^^^^^^^^^^^^^^^^^^^^^^^^^^^^^^
  File "/home/amily/iree-turbine/.venv/lib/python3.11/site-packages/torch/_ops.py", line 1255, in __call__
    return self._op(*args, **kwargs)
           ^^^^^^^^^^^^^^^^^^^^^^^^^
  File "/home/amily/iree-turbine/iree/turbine/kernel/boo/ops/graph.py", line 442, in _
    outputs = launch(*[arg.data for arg in handled_inputs])
              ^^^^^^^^^^^^^^^^^^^^^^^^^^^^^^^^^^^^^^^^^^^^^
  File "/home/amily/iree-turbine/iree/turbine/runtime/launch.py", line 242, in __call__
    vm_context, vm_function = self._resolve_target_binary(turbine_device)
                              ^^^^^^^^^^^^^^^^^^^^^^^^^^^^^^^^^^^^^^^^^^^
  File "/home/amily/iree-turbine/iree/turbine/runtime/launch.py", line 191, in _resolve_target_binary
    _named_module = loader(turbine_device)
                    ^^^^^^^^^^^^^^^^^^^^^^
  File "/home/amily/iree-turbine/iree/turbine/runtime/launch.py", line 160, in loader
    return entry_point, vm_module_callback(device)
                        ^^^^^^^^^^^^^^^^^^^^^^^^^^
  File "/home/amily/iree-turbine/iree/turbine/kernel/boo/runtime/launch.py", line 211, in callback
    return VmModule.copy_buffer(vm_instance, vmfb)
           ^^^^^^^^^^^^^^^^^^^^^^^^^^^^^^^^^^^^^^^
ValueError: Error creating vm module from aligned memory: c/runtime/src/iree/vm/bytecode/archive.c:106: INVALID_ARGUMENT; FlatBuffer data is not present or less than 16 bytes (0 total)
DEBUG 02-12 15:53:00 [apply.py:119] Source module:
class <lambda>(torch.nn.Module):
    def forward(self, arg0_1: "bf16[576][1]", arg1_1: "bf16[1280, 576][576, 1]", arg2_1: "bf16[576, 576][1, 576]"):
         # File: /home/amily/iree-turbine/iree/turbine/kernel/boo/op_exports/aten.py:97 in forward, code: return func(*args, **kwargs)
        addmm: "bf16[1280, 576][576, 1]" = torch.ops.aten.addmm.default(arg0_1, arg1_1, arg2_1);  arg0_1 = arg1_1 = arg2_1 = None
        return (addmm,)
        
DEBUG 02-12 15:53:00 [subgraph.py:98] pre-sort node_list: [addmm]
DEBUG 02-12 15:53:00 [subgraph.py:100] post-sort node_list: [addmm]
DEBUG 02-12 15:53:00 [apply.py:119] Decomposed module:
class <lambda>(torch.nn.Module):
    def forward(self, arg0_1: "bf16[576][1]", arg1_1: "bf16[1280, 576][576, 1]", arg2_1: "bf16[576, 576][1, 576]"):
        # No stacktrace found for following nodes
        convert_element_type: "f32[576][1]" = torch.ops.prims.convert_element_type.default(arg0_1, torch.float32);  arg0_1 = None
        convert_element_type_1: "f32[1280, 576][576, 1]" = torch.ops.prims.convert_element_type.default(arg1_1, torch.float32);  arg1_1 = None
        convert_element_type_2: "f32[576, 576][1, 576]" = torch.ops.prims.convert_element_type.default(arg2_1, torch.float32);  arg2_1 = None
        mm: "f32[1280, 576][576, 1]" = torch.ops.aten.mm.default(convert_element_type_1, convert_element_type_2);  convert_element_type_1 = convert_element_type_2 = None
        mul: "f32[1280, 576][576, 1]" = torch.ops.aten.mul.Tensor(mm, 1);  mm = None
        mul_1: "f32[576][1]" = torch.ops.aten.mul.Tensor(convert_element_type, 1);  convert_element_type = None
        add: "f32[1280, 576][576, 1]" = torch.ops.aten.add.Tensor(mul, mul_1);  mul = mul_1 = None
        convert_element_type_3: "bf16[1280, 576][576, 1]" = torch.ops.prims.convert_element_type.default(add, torch.bfloat16);  add = None
        return (convert_element_type_3,)
        
DEBUG 02-12 15:53:00 [graph.py:271] Got hash str 'e3c3813d9aed808a2629431fe19bac16e5a4a1a7' for GraphModule: 
 class GraphModule(torch.nn.Module):
    def forward(self, arg0_1: "bf16[576][1]", arg1_1: "bf16[1280, 576][576, 1]", arg2_1_boo: "bf16[576, 576][576, 1]"):
        # No stacktrace found for following nodes
        permute_default: "bf16[576, 576][1, 576]" = torch.ops.aten.permute.default(arg2_1_boo, [1, 0]);  arg2_1_boo = None
        convert_element_type: "f32[576][1]" = torch.ops.prims.convert_element_type.default(arg0_1, torch.float32);  arg0_1 = None
        convert_element_type_1: "f32[1280, 576][576, 1]" = torch.ops.prims.convert_element_type.default(arg1_1, torch.float32);  arg1_1 = None
        convert_element_type_2: "f32[576, 576][1, 576]" = torch.ops.prims.convert_element_type.default(permute_default, torch.float32);  permute_default = None
        mm: "f32[1280, 576][576, 1]" = torch.ops.aten.mm.default(convert_element_type_1, convert_element_type_2);  convert_element_type_1 = convert_element_type_2 = None
        mul: "f32[1280, 576][576, 1]" = torch.ops.aten.mul.Tensor(mm, 1);  mm = None
        mul_1: "f32[576][1]" = torch.ops.aten.mul.Tensor(convert_element_type, 1);  convert_element_type = None
        add: "f32[1280, 576][576, 1]" = torch.ops.aten.add.Tensor(mul, mul_1);  mul = mul_1 = None
        convert_element_type_3: "bf16[1280, 576][576, 1]" = torch.ops.prims.convert_element_type.default(add, torch.bfloat16);  add = None
        return (convert_element_type_3,)
        
DEBUG 02-12 15:53:00 [apply.py:119] Post-fusion module:
class <lambda>(torch.nn.Module):
    def forward(self, arg0_1: "bf16[576][1]", arg1_1: "bf16[1280, 576][576, 1]", arg2_1: "bf16[576, 576][1, 576]"):
         # File: /home/amily/iree-turbine/iree/turbine/kernel/boo/op_exports/aten.py:97 in forward, code: return func(*args, **kwargs)
        fused_op_convert_el_convert_el_convert_el_mm_mul_mul_1_add_convert_el_e3c3813d9aed808a2629431fe19bac16e5a4a1a7_576xbfloat16_1280x576xbfloat16_576x576xbfloat16: "bf16[1280, 576][576, 1]" = torch.ops.boo.fused_op_convert_el_convert_el_convert_el_mm_mul_mul_1_add_convert_el_e3c3813d9aed808a2629431fe19bac16e5a4a1a7_576xbfloat16_1280x576xbfloat16_576x576xbfloat16(arg0_1, arg1_1, arg2_1);  arg0_1 = arg1_1 = arg2_1 = None
        return (fused_op_convert_el_convert_el_convert_el_mm_mul_mul_1_add_convert_el_e3c3813d9aed808a2629431fe19bac16e5a4a1a7_576xbfloat16_1280x576xbfloat16_576x576xbfloat16,)
        
DEBUG 02-12 15:53:00 [launch.py:345] Saving newly generated mlir file to /home/amily/iree-turbine/iree/turbine/kernel/boo/driver/dump2/fused_op_convert_el_convert_el_convert_el_mm_mul_mul_1_add_convert_el_e3c3813d9aed808a2629431fe19bac16e5a4a1a7_576xbfloat16_1280x576xbfloat16_576x576xbfloat16/fused_op_convert_el_convert_el_convert_el_mm_mul_mul_1_add_convert_el_e3c3813d9aed808a2629431fe19bac16e5a4a1a7_576xbfloat16_1280x576xbfloat16_576x576xbfloat16.mlir
DEBUG 02-12 15:53:00 [launch.py:218] Compiling vmfb to cache: /home/amily/iree-turbine/iree/turbine/kernel/boo/driver/dump2/fused_op_convert_el_convert_el_convert_el_mm_mul_mul_1_add_convert_el_e3c3813d9aed808a2629431fe19bac16e5a4a1a7_576xbfloat16_1280x576xbfloat16_576x576xbfloat16/0831dbe5d0cf8f642aba5b8358bd979a07b4bf39.vmfb
DEBUG 02-12 15:53:01 [launch.py:193] Cached new module for hip:--iree-hal-target-backends=rocm;--iree-hip-target=mi300x
DEBUG 02-12 15:53:01 [launch.py:148] Cached new binary for hip:1:0
DEBUG 02-12 15:53:01 [launch.py:171] Launching cached binary for hip:1:0
DEBUG 02-12 15:53:01 [apply.py:119] Source module:
class <lambda>(torch.nn.Module):
    def forward(self, arg0_1: "bf16[10, 21, 96][2016, 96, 1]", arg1_1: "bf16[10, 96, 96][9216, 1, 96]"):
         # File: /home/amily/iree-turbine/iree/turbine/kernel/boo/op_exports/aten.py:97 in forward, code: return func(*args, **kwargs)
        bmm: "bf16[10, 21, 96][2016, 96, 1]" = torch.ops.aten.bmm.default(arg0_1, arg1_1);  arg0_1 = arg1_1 = None
        return (bmm,)
        
DEBUG 02-12 15:53:01 [subgraph.py:98] pre-sort node_list: [bmm]
DEBUG 02-12 15:53:01 [subgraph.py:100] post-sort node_list: [bmm]
DEBUG 02-12 15:53:01 [apply.py:119] Decomposed module:
class <lambda>(torch.nn.Module):
    def forward(self, arg0_1: "bf16[10, 21, 96][2016, 96, 1]", arg1_1: "bf16[10, 96, 96][9216, 1, 96]"):
        # No stacktrace found for following nodes
        bmm: "bf16[10, 21, 96][2016, 96, 1]" = torch.ops.aten.bmm.default(arg0_1, arg1_1);  arg0_1 = arg1_1 = None
        return (bmm,)
        
DEBUG 02-12 15:53:01 [graph.py:271] Got hash str 'cff4ced8a652d687e785168b5b3760dfb6845086' for GraphModule: 
 class GraphModule(torch.nn.Module):
    def forward(self, arg0_1: "bf16[10, 21, 96][2016, 96, 1]", arg1_1_boo: "bf16[10, 96, 96][9216, 96, 1]"):
        # No stacktrace found for following nodes
        permute_default: "bf16[10, 96, 96][9216, 1, 96]" = torch.ops.aten.permute.default(arg1_1_boo, [0, 2, 1]);  arg1_1_boo = None
        bmm: "bf16[10, 21, 96][2016, 96, 1]" = torch.ops.aten.bmm.default(arg0_1, permute_default);  arg0_1 = permute_default = None
        return (bmm,)
        
DEBUG 02-12 15:53:01 [apply.py:119] Post-fusion module:
class <lambda>(torch.nn.Module):
    def forward(self, arg0_1: "bf16[10, 21, 96][2016, 96, 1]", arg1_1: "bf16[10, 96, 96][9216, 1, 96]"):
         # File: /home/amily/iree-turbine/iree/turbine/kernel/boo/op_exports/aten.py:97 in forward, code: return func(*args, **kwargs)
        fused_op_bmm_cff4ced8a652d687e785168b5b3760dfb6845086_10x21x96xbfloat16_10x96x96xbfloat16: "bf16[10, 21, 96][2016, 96, 1]" = torch.ops.boo.fused_op_bmm_cff4ced8a652d687e785168b5b3760dfb6845086_10x21x96xbfloat16_10x96x96xbfloat16(arg0_1, arg1_1);  arg0_1 = arg1_1 = None
        return (fused_op_bmm_cff4ced8a652d687e785168b5b3760dfb6845086_10x21x96xbfloat16_10x96x96xbfloat16,)
        
DEBUG 02-12 15:53:01 [launch.py:345] Saving newly generated mlir file to /home/amily/iree-turbine/iree/turbine/kernel/boo/driver/dump2/fused_op_bmm_cff4ced8a652d687e785168b5b3760dfb6845086_10x21x96xbfloat16_10x96x96xbfloat16/fused_op_bmm_cff4ced8a652d687e785168b5b3760dfb6845086_10x21x96xbfloat16_10x96x96xbfloat16.mlir
DEBUG 02-12 15:53:01 [launch.py:218] Compiling vmfb to cache: /home/amily/iree-turbine/iree/turbine/kernel/boo/driver/dump2/fused_op_bmm_cff4ced8a652d687e785168b5b3760dfb6845086_10x21x96xbfloat16_10x96x96xbfloat16/0831dbe5d0cf8f642aba5b8358bd979a07b4bf39.vmfb
DEBUG 02-12 15:53:01 [launch.py:193] Cached new module for hip:--iree-hal-target-backends=rocm;--iree-hip-target=mi300x
DEBUG 02-12 15:53:01 [launch.py:148] Cached new binary for hip:1:0
DEBUG 02-12 15:53:01 [launch.py:171] Launching cached binary for hip:1:0
DEBUG 02-12 15:53:02 [apply.py:119] Source module:
class <lambda>(torch.nn.Module):
    def forward(self, arg0_1: "bf16[4, 5][1, 4]", arg1_1: "bf16[5, 384][384, 1]"):
         # File: /home/amily/iree-turbine/iree/turbine/kernel/boo/op_exports/aten.py:97 in forward, code: return func(*args, **kwargs)
        mm: "bf16[4, 384][384, 1]" = torch.ops.aten.mm.default(arg0_1, arg1_1);  arg0_1 = arg1_1 = None
        return (mm,)
        
DEBUG 02-12 15:53:02 [subgraph.py:98] pre-sort node_list: [mm]
DEBUG 02-12 15:53:02 [subgraph.py:100] post-sort node_list: [mm]
DEBUG 02-12 15:53:02 [apply.py:119] Decomposed module:
class <lambda>(torch.nn.Module):
    def forward(self, arg0_1: "bf16[4, 5][1, 4]", arg1_1: "bf16[5, 384][384, 1]"):
        # No stacktrace found for following nodes
        mm: "bf16[4, 384][384, 1]" = torch.ops.aten.mm.default(arg0_1, arg1_1);  arg0_1 = arg1_1 = None
        return (mm,)
        
DEBUG 02-12 15:53:02 [graph.py:271] Got hash str '314f66a213ac6c1a039cd87108ecc749b66eadc4' for GraphModule: 
 class GraphModule(torch.nn.Module):
    def forward(self, arg0_1_boo: "bf16[5, 4][4, 1]", arg1_1: "bf16[5, 384][384, 1]"):
        # No stacktrace found for following nodes
        permute_default: "bf16[4, 5][1, 4]" = torch.ops.aten.permute.default(arg0_1_boo, [1, 0]);  arg0_1_boo = None
        mm: "bf16[4, 384][384, 1]" = torch.ops.aten.mm.default(permute_default, arg1_1);  permute_default = arg1_1 = None
        return (mm,)
        
DEBUG 02-12 15:53:02 [apply.py:119] Post-fusion module:
class <lambda>(torch.nn.Module):
    def forward(self, arg0_1: "bf16[4, 5][1, 4]", arg1_1: "bf16[5, 384][384, 1]"):
         # File: /home/amily/iree-turbine/iree/turbine/kernel/boo/op_exports/aten.py:97 in forward, code: return func(*args, **kwargs)
        fused_op_mm_314f66a213ac6c1a039cd87108ecc749b66eadc4_5x4xbfloat16_5x384xbfloat16: "bf16[4, 384][384, 1]" = torch.ops.boo.fused_op_mm_314f66a213ac6c1a039cd87108ecc749b66eadc4_5x4xbfloat16_5x384xbfloat16(arg0_1, arg1_1);  arg0_1 = arg1_1 = None
        return (fused_op_mm_314f66a213ac6c1a039cd87108ecc749b66eadc4_5x4xbfloat16_5x384xbfloat16,)
        
DEBUG 02-12 15:53:02 [launch.py:309] Loading cached mlir file at /home/amily/iree-turbine/iree/turbine/kernel/boo/driver/dump2/fused_op_mm_314f66a213ac6c1a039cd87108ecc749b66eadc4_5x4xbfloat16_5x384xbfloat16/fused_op_mm_314f66a213ac6c1a039cd87108ecc749b66eadc4_5x4xbfloat16_5x384xbfloat16.mlir
DEBUG 02-12 15:53:02 [launch.py:209] Loading vmfb from cache: /home/amily/iree-turbine/iree/turbine/kernel/boo/driver/dump2/fused_op_mm_314f66a213ac6c1a039cd87108ecc749b66eadc4_5x4xbfloat16_5x384xbfloat16/0831dbe5d0cf8f642aba5b8358bd979a07b4bf39.vmfb
Traceback (most recent call last):
  File "/home/amily/iree-turbine/iree/turbine/kernel/boo/driver/driver.py", line 188, in main
    prof = run(
           ^^^^
  File "/home/amily/iree-turbine/iree/turbine/kernel/boo/driver/driver.py", line 285, in run
    example_results = func(*per_device_args[0])
                      ^^^^^^^^^^^^^^^^^^^^^^^^^
  File "/home/amily/iree-turbine/iree/turbine/kernel/boo/exports/signature.py", line 76, in run_and_verify
    result = compiled(*args, **kwargs)
             ^^^^^^^^^^^^^^^^^^^^^^^^^
  File "/home/amily/iree-turbine/.venv/lib/python3.11/site-packages/torch/_dynamo/eval_frame.py", line 414, in __call__
    return super().__call__(*args, **kwargs)
           ^^^^^^^^^^^^^^^^^^^^^^^^^^^^^^^^^
  File "/home/amily/iree-turbine/.venv/lib/python3.11/site-packages/torch/nn/modules/module.py", line 1775, in _wrapped_call_impl
    return self._call_impl(*args, **kwargs)
           ^^^^^^^^^^^^^^^^^^^^^^^^^^^^^^^^
  File "/home/amily/iree-turbine/.venv/lib/python3.11/site-packages/torch/nn/modules/module.py", line 1786, in _call_impl
    return forward_call(*args, **kwargs)
           ^^^^^^^^^^^^^^^^^^^^^^^^^^^^^
  File "/home/amily/iree-turbine/.venv/lib/python3.11/site-packages/torch/_dynamo/eval_frame.py", line 832, in compile_wrapper
    return fn(*args, **kwargs)
           ^^^^^^^^^^^^^^^^^^^
  File "/home/amily/iree-turbine/.venv/lib/python3.11/site-packages/torch/nn/modules/module.py", line 1775, in _wrapped_call_impl
    return self._call_impl(*args, **kwargs)
           ^^^^^^^^^^^^^^^^^^^^^^^^^^^^^^^^
  File "/home/amily/iree-turbine/.venv/lib/python3.11/site-packages/torch/nn/modules/module.py", line 1786, in _call_impl
    return forward_call(*args, **kwargs)
           ^^^^^^^^^^^^^^^^^^^^^^^^^^^^^
  File "/home/amily/iree-turbine/iree/turbine/kernel/boo/op_exports/aten.py", line 96, in forward
    def forward(self, *args):
  File "/home/amily/iree-turbine/.venv/lib/python3.11/site-packages/torch/_dynamo/eval_frame.py", line 1044, in _fn
    return fn(*args, **kwargs)
           ^^^^^^^^^^^^^^^^^^^
  File "/home/amily/iree-turbine/.venv/lib/python3.11/site-packages/torch/_functorch/aot_autograd.py", line 1130, in forward
    return compiled_fn(full_args)
           ^^^^^^^^^^^^^^^^^^^^^^
  File "/home/amily/iree-turbine/.venv/lib/python3.11/site-packages/torch/_functorch/_aot_autograd/runtime_wrappers.py", line 353, in runtime_wrapper
    all_outs = call_func_at_runtime_with_args(
               ^^^^^^^^^^^^^^^^^^^^^^^^^^^^^^^
  File "/home/amily/iree-turbine/.venv/lib/python3.11/site-packages/torch/_functorch/_aot_autograd/utils.py", line 129, in call_func_at_runtime_with_args
    out = normalize_as_list(f(args))
                            ^^^^^^^
  File "/home/amily/iree-turbine/.venv/lib/python3.11/site-packages/torch/_functorch/_aot_autograd/runtime_wrappers.py", line 724, in inner_fn
    outs = compiled_fn(args)
           ^^^^^^^^^^^^^^^^^
  File "/home/amily/iree-turbine/.venv/lib/python3.11/site-packages/torch/_functorch/_aot_autograd/runtime_wrappers.py", line 526, in wrapper
    return compiled_fn(runtime_args)
           ^^^^^^^^^^^^^^^^^^^^^^^^^
  File "/home/amily/iree-turbine/.venv/lib/python3.11/site-packages/torch/_functorch/_aot_autograd/utils.py", line 103, in g
    return f(*args)
           ^^^^^^^^
  File "/home/amily/iree-turbine/.venv/lib/python3.11/site-packages/torch/fx/_lazy_graph_module.py", line 126, in _lazy_forward
    return self(*args, **kwargs)
           ^^^^^^^^^^^^^^^^^^^^^
  File "/home/amily/iree-turbine/.venv/lib/python3.11/site-packages/torch/fx/graph_module.py", line 837, in call_wrapped
    return self._wrapped_call(self, *args, **kwargs)
           ^^^^^^^^^^^^^^^^^^^^^^^^^^^^^^^^^^^^^^^^^
  File "/home/amily/iree-turbine/.venv/lib/python3.11/site-packages/torch/fx/graph_module.py", line 413, in __call__
    raise e
  File "/home/amily/iree-turbine/.venv/lib/python3.11/site-packages/torch/fx/graph_module.py", line 400, in __call__
    return super(self.cls, obj).__call__(*args, **kwargs)  # type: ignore[misc]
           ^^^^^^^^^^^^^^^^^^^^^^^^^^^^^^^^^^^^^^^^^^^^^^
  File "/home/amily/iree-turbine/.venv/lib/python3.11/site-packages/torch/nn/modules/module.py", line 1775, in _wrapped_call_impl
    return self._call_impl(*args, **kwargs)
           ^^^^^^^^^^^^^^^^^^^^^^^^^^^^^^^^
  File "/home/amily/iree-turbine/.venv/lib/python3.11/site-packages/torch/nn/modules/module.py", line 1786, in _call_impl
    return forward_call(*args, **kwargs)
           ^^^^^^^^^^^^^^^^^^^^^^^^^^^^^
  File "<eval_with_key>.1895 from /home/amily/iree-turbine/.venv/lib/python3.11/site-packages/torch/fx/experimental/proxy_tensor.py:1350 in wrapped", line 5, in forward
    fused_op_mm_314f66a213ac6c1a039cd87108ecc749b66eadc4_5x4xbfloat16_5x384xbfloat16 = torch.ops.boo.fused_op_mm_314f66a213ac6c1a039cd87108ecc749b66eadc4_5x4xbfloat16_5x384xbfloat16(arg0_1, arg1_1);  arg0_1 = arg1_1 = None
                                                                                       ^^^^^^^^^^^^^^^^^^^^^^^^^^^^^^^^^^^^^^^^^^^^^^^^^^^^^^^^^^^^^^^^^^^^^^^^^^^^^^^^^^^^^^^^^^^^^^^^^^^^^^^^^^^^^^
  File "/home/amily/iree-turbine/.venv/lib/python3.11/site-packages/torch/_ops.py", line 1255, in __call__
    return self._op(*args, **kwargs)
           ^^^^^^^^^^^^^^^^^^^^^^^^^
  File "/home/amily/iree-turbine/iree/turbine/kernel/boo/ops/graph.py", line 442, in _
    outputs = launch(*[arg.data for arg in handled_inputs])
              ^^^^^^^^^^^^^^^^^^^^^^^^^^^^^^^^^^^^^^^^^^^^^
  File "/home/amily/iree-turbine/iree/turbine/runtime/launch.py", line 242, in __call__
    vm_context, vm_function = self._resolve_target_binary(turbine_device)
                              ^^^^^^^^^^^^^^^^^^^^^^^^^^^^^^^^^^^^^^^^^^^
  File "/home/amily/iree-turbine/iree/turbine/runtime/launch.py", line 191, in _resolve_target_binary
    _named_module = loader(turbine_device)
                    ^^^^^^^^^^^^^^^^^^^^^^
  File "/home/amily/iree-turbine/iree/turbine/runtime/launch.py", line 160, in loader
    return entry_point, vm_module_callback(device)
                        ^^^^^^^^^^^^^^^^^^^^^^^^^^
  File "/home/amily/iree-turbine/iree/turbine/kernel/boo/runtime/launch.py", line 211, in callback
    return VmModule.copy_buffer(vm_instance, vmfb)
           ^^^^^^^^^^^^^^^^^^^^^^^^^^^^^^^^^^^^^^^
ValueError: Error creating vm module from aligned memory: c/runtime/src/iree/vm/bytecode/archive.c:106: INVALID_ARGUMENT; FlatBuffer data is not present or less than 16 bytes (0 total)
DEBUG 02-12 15:53:02 [apply.py:119] Source module:
class <lambda>(torch.nn.Module):
    def forward(self, arg0_1: "bf16[10, 96, 96][9216, 96, 1]", arg1_1: "bf16[10, 96, 21][2016, 1, 96]"):
         # File: /home/amily/iree-turbine/iree/turbine/kernel/boo/op_exports/aten.py:97 in forward, code: return func(*args, **kwargs)
        bmm: "bf16[10, 96, 21][2016, 21, 1]" = torch.ops.aten.bmm.default(arg0_1, arg1_1);  arg0_1 = arg1_1 = None
        return (bmm,)
        
DEBUG 02-12 15:53:02 [subgraph.py:98] pre-sort node_list: [bmm]
DEBUG 02-12 15:53:02 [subgraph.py:100] post-sort node_list: [bmm]
DEBUG 02-12 15:53:02 [apply.py:119] Decomposed module:
class <lambda>(torch.nn.Module):
    def forward(self, arg0_1: "bf16[10, 96, 96][9216, 96, 1]", arg1_1: "bf16[10, 96, 21][2016, 1, 96]"):
        # No stacktrace found for following nodes
        bmm: "bf16[10, 96, 21][2016, 21, 1]" = torch.ops.aten.bmm.default(arg0_1, arg1_1);  arg0_1 = arg1_1 = None
        return (bmm,)
        
DEBUG 02-12 15:53:02 [graph.py:271] Got hash str '978b55912d4a624daffa03c44380d51dd0070ba7' for GraphModule: 
 class GraphModule(torch.nn.Module):
    def forward(self, arg0_1: "bf16[10, 96, 96][9216, 96, 1]", arg1_1_boo: "bf16[10, 21, 96][2016, 96, 1]"):
        # No stacktrace found for following nodes
        permute_default: "bf16[10, 96, 21][2016, 1, 96]" = torch.ops.aten.permute.default(arg1_1_boo, [0, 2, 1]);  arg1_1_boo = None
        bmm: "bf16[10, 96, 21][2016, 21, 1]" = torch.ops.aten.bmm.default(arg0_1, permute_default);  arg0_1 = permute_default = None
        return (bmm,)
        
DEBUG 02-12 15:53:02 [apply.py:119] Post-fusion module:
class <lambda>(torch.nn.Module):
    def forward(self, arg0_1: "bf16[10, 96, 96][9216, 96, 1]", arg1_1: "bf16[10, 96, 21][2016, 1, 96]"):
         # File: /home/amily/iree-turbine/iree/turbine/kernel/boo/op_exports/aten.py:97 in forward, code: return func(*args, **kwargs)
        fused_op_bmm_978b55912d4a624daffa03c44380d51dd0070ba7_10x96x96xbfloat16_10x21x96xbfloat16: "bf16[10, 96, 21][2016, 21, 1]" = torch.ops.boo.fused_op_bmm_978b55912d4a624daffa03c44380d51dd0070ba7_10x96x96xbfloat16_10x21x96xbfloat16(arg0_1, arg1_1);  arg0_1 = arg1_1 = None
        return (fused_op_bmm_978b55912d4a624daffa03c44380d51dd0070ba7_10x96x96xbfloat16_10x21x96xbfloat16,)
        
DEBUG 02-12 15:53:02 [launch.py:345] Saving newly generated mlir file to /home/amily/iree-turbine/iree/turbine/kernel/boo/driver/dump2/fused_op_bmm_978b55912d4a624daffa03c44380d51dd0070ba7_10x96x96xbfloat16_10x21x96xbfloat16/fused_op_bmm_978b55912d4a624daffa03c44380d51dd0070ba7_10x96x96xbfloat16_10x21x96xbfloat16.mlir
DEBUG 02-12 15:53:02 [launch.py:218] Compiling vmfb to cache: /home/amily/iree-turbine/iree/turbine/kernel/boo/driver/dump2/fused_op_bmm_978b55912d4a624daffa03c44380d51dd0070ba7_10x96x96xbfloat16_10x21x96xbfloat16/0831dbe5d0cf8f642aba5b8358bd979a07b4bf39.vmfb
DEBUG 02-12 15:53:02 [launch.py:193] Cached new module for hip:--iree-hal-target-backends=rocm;--iree-hip-target=mi300x
DEBUG 02-12 15:53:02 [launch.py:148] Cached new binary for hip:1:0
DEBUG 02-12 15:53:02 [launch.py:171] Launching cached binary for hip:1:0
DEBUG 02-12 15:53:02 [apply.py:119] Source module:
class <lambda>(torch.nn.Module):
    def forward(self, arg0_1: "bf16[5, 4][4, 1]", arg1_1: "bf16[4, 384][384, 1]"):
         # File: /home/amily/iree-turbine/iree/turbine/kernel/boo/op_exports/aten.py:97 in forward, code: return func(*args, **kwargs)
        mm: "bf16[5, 384][384, 1]" = torch.ops.aten.mm.default(arg0_1, arg1_1);  arg0_1 = arg1_1 = None
        return (mm,)
        
DEBUG 02-12 15:53:02 [subgraph.py:98] pre-sort node_list: [mm]
DEBUG 02-12 15:53:02 [subgraph.py:100] post-sort node_list: [mm]
DEBUG 02-12 15:53:02 [apply.py:119] Decomposed module:
class <lambda>(torch.nn.Module):
    def forward(self, arg0_1: "bf16[5, 4][4, 1]", arg1_1: "bf16[4, 384][384, 1]"):
        # No stacktrace found for following nodes
        mm: "bf16[5, 384][384, 1]" = torch.ops.aten.mm.default(arg0_1, arg1_1);  arg0_1 = arg1_1 = None
        return (mm,)
        
DEBUG 02-12 15:53:02 [graph.py:271] Got hash str '660ea5711ba89f83ce0d70d8be3379f62ef688f7' for GraphModule: 
 class GraphModule(torch.nn.Module):
    def forward(self, arg0_1: "bf16[5, 4][4, 1]", arg1_1: "bf16[4, 384][384, 1]"):
        # No stacktrace found for following nodes
        mm: "bf16[5, 384][384, 1]" = torch.ops.aten.mm.default(arg0_1, arg1_1);  arg0_1 = arg1_1 = None
        return (mm,)
        
DEBUG 02-12 15:53:02 [apply.py:119] Post-fusion module:
class <lambda>(torch.nn.Module):
    def forward(self, arg0_1: "bf16[5, 4][4, 1]", arg1_1: "bf16[4, 384][384, 1]"):
         # File: /home/amily/iree-turbine/iree/turbine/kernel/boo/op_exports/aten.py:97 in forward, code: return func(*args, **kwargs)
        fused_op_mm_660ea5711ba89f83ce0d70d8be3379f62ef688f7_5x4xbfloat16_4x384xbfloat16: "bf16[5, 384][384, 1]" = torch.ops.boo.fused_op_mm_660ea5711ba89f83ce0d70d8be3379f62ef688f7_5x4xbfloat16_4x384xbfloat16(arg0_1, arg1_1);  arg0_1 = arg1_1 = None
        return (fused_op_mm_660ea5711ba89f83ce0d70d8be3379f62ef688f7_5x4xbfloat16_4x384xbfloat16,)
        
DEBUG 02-12 15:53:02 [launch.py:345] Saving newly generated mlir file to /home/amily/iree-turbine/iree/turbine/kernel/boo/driver/dump2/fused_op_mm_660ea5711ba89f83ce0d70d8be3379f62ef688f7_5x4xbfloat16_4x384xbfloat16/fused_op_mm_660ea5711ba89f83ce0d70d8be3379f62ef688f7_5x4xbfloat16_4x384xbfloat16.mlir
DEBUG 02-12 15:53:02 [launch.py:218] Compiling vmfb to cache: /home/amily/iree-turbine/iree/turbine/kernel/boo/driver/dump2/fused_op_mm_660ea5711ba89f83ce0d70d8be3379f62ef688f7_5x4xbfloat16_4x384xbfloat16/0831dbe5d0cf8f642aba5b8358bd979a07b4bf39.vmfb
DEBUG 02-12 15:53:03 [launch.py:193] Cached new module for hip:--iree-hal-target-backends=rocm;--iree-hip-target=mi300x
DEBUG 02-12 15:53:03 [launch.py:148] Cached new binary for hip:1:0
DEBUG 02-12 15:53:03 [launch.py:171] Launching cached binary for hip:1:0
DEBUG 02-12 15:53:03 [apply.py:119] Source module:
class <lambda>(torch.nn.Module):
    def forward(self, arg0_1: "bf16[4][1]", arg1_1: "bf16[5, 384][384, 1]", arg2_1: "bf16[384, 4][1, 384]"):
         # File: /home/amily/iree-turbine/iree/turbine/kernel/boo/op_exports/aten.py:97 in forward, code: return func(*args, **kwargs)
        addmm: "bf16[5, 4][4, 1]" = torch.ops.aten.addmm.default(arg0_1, arg1_1, arg2_1);  arg0_1 = arg1_1 = arg2_1 = None
        return (addmm,)
        
DEBUG 02-12 15:53:03 [subgraph.py:98] pre-sort node_list: [addmm]
DEBUG 02-12 15:53:03 [subgraph.py:100] post-sort node_list: [addmm]
DEBUG 02-12 15:53:03 [apply.py:119] Decomposed module:
class <lambda>(torch.nn.Module):
    def forward(self, arg0_1: "bf16[4][1]", arg1_1: "bf16[5, 384][384, 1]", arg2_1: "bf16[384, 4][1, 384]"):
        # No stacktrace found for following nodes
        convert_element_type: "f32[4][1]" = torch.ops.prims.convert_element_type.default(arg0_1, torch.float32);  arg0_1 = None
        convert_element_type_1: "f32[5, 384][384, 1]" = torch.ops.prims.convert_element_type.default(arg1_1, torch.float32);  arg1_1 = None
        convert_element_type_2: "f32[384, 4][1, 384]" = torch.ops.prims.convert_element_type.default(arg2_1, torch.float32);  arg2_1 = None
        mm: "f32[5, 4][4, 1]" = torch.ops.aten.mm.default(convert_element_type_1, convert_element_type_2);  convert_element_type_1 = convert_element_type_2 = None
        mul: "f32[5, 4][4, 1]" = torch.ops.aten.mul.Tensor(mm, 1);  mm = None
        mul_1: "f32[4][1]" = torch.ops.aten.mul.Tensor(convert_element_type, 1);  convert_element_type = None
        add: "f32[5, 4][4, 1]" = torch.ops.aten.add.Tensor(mul, mul_1);  mul = mul_1 = None
        convert_element_type_3: "bf16[5, 4][4, 1]" = torch.ops.prims.convert_element_type.default(add, torch.bfloat16);  add = None
        return (convert_element_type_3,)
        
DEBUG 02-12 15:53:03 [graph.py:271] Got hash str 'ede9f8589a53a41872573c10e540dc32f0505f23' for GraphModule: 
 class GraphModule(torch.nn.Module):
    def forward(self, arg0_1: "bf16[4][1]", arg1_1: "bf16[5, 384][384, 1]", arg2_1_boo: "bf16[4, 384][384, 1]"):
        # No stacktrace found for following nodes
        permute_default: "bf16[384, 4][1, 384]" = torch.ops.aten.permute.default(arg2_1_boo, [1, 0]);  arg2_1_boo = None
        convert_element_type: "f32[4][1]" = torch.ops.prims.convert_element_type.default(arg0_1, torch.float32);  arg0_1 = None
        convert_element_type_1: "f32[5, 384][384, 1]" = torch.ops.prims.convert_element_type.default(arg1_1, torch.float32);  arg1_1 = None
        convert_element_type_2: "f32[384, 4][1, 384]" = torch.ops.prims.convert_element_type.default(permute_default, torch.float32);  permute_default = None
        mm: "f32[5, 4][4, 1]" = torch.ops.aten.mm.default(convert_element_type_1, convert_element_type_2);  convert_element_type_1 = convert_element_type_2 = None
        mul: "f32[5, 4][4, 1]" = torch.ops.aten.mul.Tensor(mm, 1);  mm = None
        mul_1: "f32[4][1]" = torch.ops.aten.mul.Tensor(convert_element_type, 1);  convert_element_type = None
        add: "f32[5, 4][4, 1]" = torch.ops.aten.add.Tensor(mul, mul_1);  mul = mul_1 = None
        convert_element_type_3: "bf16[5, 4][4, 1]" = torch.ops.prims.convert_element_type.default(add, torch.bfloat16);  add = None
        return (convert_element_type_3,)
        
DEBUG 02-12 15:53:03 [apply.py:119] Post-fusion module:
class <lambda>(torch.nn.Module):
    def forward(self, arg0_1: "bf16[4][1]", arg1_1: "bf16[5, 384][384, 1]", arg2_1: "bf16[384, 4][1, 384]"):
         # File: /home/amily/iree-turbine/iree/turbine/kernel/boo/op_exports/aten.py:97 in forward, code: return func(*args, **kwargs)
        fused_op_convert_el_convert_el_convert_el_mm_mul_mul_1_add_convert_el_ede9f8589a53a41872573c10e540dc32f0505f23_4xbfloat16_5x384xbfloat16_4x384xbfloat16: "bf16[5, 4][4, 1]" = torch.ops.boo.fused_op_convert_el_convert_el_convert_el_mm_mul_mul_1_add_convert_el_ede9f8589a53a41872573c10e540dc32f0505f23_4xbfloat16_5x384xbfloat16_4x384xbfloat16(arg0_1, arg1_1, arg2_1);  arg0_1 = arg1_1 = arg2_1 = None
        return (fused_op_convert_el_convert_el_convert_el_mm_mul_mul_1_add_convert_el_ede9f8589a53a41872573c10e540dc32f0505f23_4xbfloat16_5x384xbfloat16_4x384xbfloat16,)
        
DEBUG 02-12 15:53:03 [launch.py:345] Saving newly generated mlir file to /home/amily/iree-turbine/iree/turbine/kernel/boo/driver/dump2/fused_op_convert_el_convert_el_convert_el_mm_mul_mul_1_add_convert_el_ede9f8589a53a41872573c10e540dc32f0505f23_4xbfloat16_5x384xbfloat16_4x384xbfloat16/fused_op_convert_el_convert_el_convert_el_mm_mul_mul_1_add_convert_el_ede9f8589a53a41872573c10e540dc32f0505f23_4xbfloat16_5x384xbfloat16_4x384xbfloat16.mlir
DEBUG 02-12 15:53:03 [launch.py:218] Compiling vmfb to cache: /home/amily/iree-turbine/iree/turbine/kernel/boo/driver/dump2/fused_op_convert_el_convert_el_convert_el_mm_mul_mul_1_add_convert_el_ede9f8589a53a41872573c10e540dc32f0505f23_4xbfloat16_5x384xbfloat16_4x384xbfloat16/0831dbe5d0cf8f642aba5b8358bd979a07b4bf39.vmfb
DEBUG 02-12 15:53:04 [launch.py:193] Cached new module for hip:--iree-hal-target-backends=rocm;--iree-hip-target=mi300x
DEBUG 02-12 15:53:04 [launch.py:148] Cached new binary for hip:1:0
DEBUG 02-12 15:53:04 [launch.py:171] Launching cached binary for hip:1:0


>>> aten::mm '[[1280, 576], [576, 2304]]' '['"'"'c10::BFloat16'"'"', '"'"'c10::BFloat16'"'"']' '[[576, 1], [2304, 1]]' '['"'"''"'"', '"'"''"'"']' --iter 1 --time 0

>>>	result #0 shape: [1280, 2304]; stride: [2304, 1]; dtype: torch.bfloat16; device type: cuda

>>> aten::mm '[[576, 1280], [1280, 2304]]' '['"'"'c10::BFloat16'"'"', '"'"'c10::BFloat16'"'"']' '[[1, 576], [2304, 1]]' '['"'"''"'"', '"'"''"'"']' --iter 1 --time 0

>>>	result #0 shape: [576, 2304]; stride: [2304, 1]; dtype: torch.bfloat16; device type: cuda

>>> aten::mm '[[1280, 576], [576, 3840]]' '['"'"'c10::BFloat16'"'"', '"'"'c10::BFloat16'"'"']' '[[576, 1], [1, 576]]' '['"'"''"'"', '"'"''"'"']' --iter 1 --time 0

>>>	result #0 shape: [1280, 3840]; stride: [3840, 1]; dtype: torch.bfloat16; device type: cuda

>>> aten::mm '[[2304, 1280], [1280, 576]]' '['"'"'c10::BFloat16'"'"', '"'"'c10::BFloat16'"'"']' '[[1, 2304], [576, 1]]' '['"'"''"'"', '"'"''"'"']' --iter 1 --time 0

>>>	result #0 shape: [2304, 576]; stride: [576, 1]; dtype: torch.bfloat16; device type: cuda

>>> aten::bmm '[[10, 96, 96], [10, 96, 96]]' '['"'"'c10::BFloat16'"'"', '"'"'c10::BFloat16'"'"']' '[[9216, 96, 1], [9216, 1, 96]]' '['"'"''"'"', '"'"''"'"']' --iter 1 --time 0


>>> aten::mm '[[384, 5], [5, 384]]' '['"'"'c10::BFloat16'"'"', '"'"'c10::BFloat16'"'"']' '[[1, 384], [384, 1]]' '['"'"''"'"', '"'"''"'"']' --iter 1 --time 0

>>>	result #0 shape: [384, 384]; stride: [384, 1]; dtype: torch.bfloat16; device type: cuda

>>> aten::bmm '[[10, 96, 21], [10, 21, 96]]' '['"'"'c10::BFloat16'"'"', '"'"'float'"'"']' '[[2016, 21, 1], [2016, 96, 1]]' '['"'"''"'"', '"'"''"'"']' --iter 1 --time 0

>>>	result #0 shape: [10, 96, 96]; stride: [9216, 96, 1]; dtype: torch.float64; device type: cuda

>>> aten::mm '[[256, 960], [960, 2048]]' '['"'"'c10::BFloat16'"'"', '"'"'c10::BFloat16'"'"']' '[[1, 256], [2048, 1]]' '['"'"''"'"', '"'"''"'"']' --iter 1 --time 0

>>>	result #0 shape: [256, 2048]; stride: [2048, 1]; dtype: torch.bfloat16; device type: cuda

>>> aten::mm '[[1280, 576], [576, 2304]]' '['"'"'c10::BFloat16'"'"', '"'"'c10::BFloat16'"'"']' '[[576, 1], [1, 576]]' '['"'"''"'"', '"'"''"'"']' --iter 1 --time 0


>>> aten::mm '[[576, 1280], [1280, 576]]' '['"'"'c10::BFloat16'"'"', '"'"'c10::BFloat16'"'"']' '[[1, 576], [576, 1]]' '['"'"''"'"', '"'"''"'"']' --iter 1 --time 0

>>>	result #0 shape: [576, 576]; stride: [576, 1]; dtype: torch.bfloat16; device type: cuda

>>> aten::mm '[[1280, 576], [576, 1728]]' '['"'"'c10::BFloat16'"'"', '"'"'c10::BFloat16'"'"']' '[[576, 1], [1, 576]]' '['"'"''"'"', '"'"''"'"']' --iter 1 --time 0

>>>	result #0 shape: [1280, 1728]; stride: [1728, 1]; dtype: torch.bfloat16; device type: cuda

>>> aten::mm '[[960, 2048], [2048, 256]]' '['"'"'c10::BFloat16'"'"', '"'"'c10::BFloat16'"'"']' '[[2048, 1], [1, 2048]]' '['"'"''"'"', '"'"''"'"']' --iter 1 --time 0

>>>	result #0 shape: [960, 256]; stride: [256, 1]; dtype: torch.bfloat16; device type: cuda

>>> aten::bmm '[[10, 96, 96], [10, 96, 96]]' '['"'"'c10::BFloat16'"'"', '"'"'float'"'"']' '[[9216, 96, 1], [9216, 96, 1]]' '['"'"''"'"', '"'"''"'"']' --iter 1 --time 0


>>> aten::mm '[[5, 384], [384, 384]]' '['"'"'c10::BFloat16'"'"', '"'"'c10::BFloat16'"'"']' '[[384, 1], [384, 1]]' '['"'"''"'"', '"'"''"'"']' --iter 1 --time 0

>>>	result #0 shape: [5, 384]; stride: [384, 1]; dtype: torch.bfloat16; device type: cuda

>>> aten::mm '[[1280, 576], [576, 576]]' '['"'"'c10::BFloat16'"'"', '"'"'c10::BFloat16'"'"']' '[[576, 1], [576, 1]]' '['"'"''"'"', '"'"''"'"']' --iter 1 --time 0

>>>	result #0 shape: [1280, 576]; stride: [576, 1]; dtype: torch.bfloat16; device type: cuda

>>> aten::addmm '[[384], [5, 384], [384, 384], [], []]' '['"'"'c10::BFloat16'"'"', '"'"'c10::BFloat16'"'"', '"'"'c10::BFloat16'"'"', '"'"'Scalar'"'"', '"'"'Scalar'"'"']' '[[1], [384, 1], [1, 384], [], []]' '['"'"''"'"', '"'"''"'"', '"'"''"'"', '"'"'1'"'"', '"'"'1'"'"']' --iter 1 --time 0

>>>	result #0 shape: [5, 384]; stride: [384, 1]; dtype: torch.bfloat16; device type: cuda

>>> aten::mm '[[960, 256], [256, 2048]]' '['"'"'c10::BFloat16'"'"', '"'"'c10::BFloat16'"'"']' '[[256, 1], [2048, 1]]' '['"'"''"'"', '"'"''"'"']' --iter 1 --time 0


>>> aten::addmm '[[576], [1280, 576], [576, 576], [], []]' '['"'"'c10::BFloat16'"'"', '"'"'c10::BFloat16'"'"', '"'"'c10::BFloat16'"'"', '"'"'Scalar'"'"', '"'"'Scalar'"'"']' '[[1], [576, 1], [1, 576], [], []]' '['"'"''"'"', '"'"''"'"', '"'"''"'"', '"'"'1'"'"', '"'"'1'"'"']' --iter 1 --time 0

>>>	result #0 shape: [1280, 576]; stride: [576, 1]; dtype: torch.bfloat16; device type: cuda

>>> aten::bmm '[[10, 21, 96], [10, 96, 96]]' '['"'"'c10::BFloat16'"'"', '"'"'c10::BFloat16'"'"']' '[[2016, 96, 1], [9216, 1, 96]]' '['"'"''"'"', '"'"''"'"']' --iter 1 --time 0

>>>	result #0 shape: [10, 21, 96]; stride: [2016, 96, 1]; dtype: torch.bfloat16; device type: cuda

>>> aten::mm '[[4, 5], [5, 384]]' '['"'"'c10::BFloat16'"'"', '"'"'c10::BFloat16'"'"']' '[[1, 4], [384, 1]]' '['"'"''"'"', '"'"''"'"']' --iter 1 --time 0


>>> aten::bmm '[[10, 96, 96], [10, 96, 21]]' '['"'"'c10::BFloat16'"'"', '"'"'c10::BFloat16'"'"']' '[[9216, 96, 1], [2016, 1, 96]]' '['"'"''"'"', '"'"''"'"']' --iter 1 --time 0

>>>	result #0 shape: [10, 96, 21]; stride: [2016, 21, 1]; dtype: torch.bfloat16; device type: cuda

>>> aten::mm '[[5, 4], [4, 384]]' '['"'"'c10::BFloat16'"'"', '"'"'c10::BFloat16'"'"']' '[[4, 1], [384, 1]]' '['"'"''"'"', '"'"''"'"']' --iter 1 --time 0

>>>	result #0 shape: [5, 384]; stride: [384, 1]; dtype: torch.bfloat16; device type: cuda

>>> aten::addmm '[[4], [5, 384], [384, 4], [], []]' '['"'"'c10::BFloat16'"'"', '"'"'c10::BFloat16'"'"', '"'"'c10::BFloat16'"'"', '"'"'Scalar'"'"', '"'"'Scalar'"'"']' '[[1], [384, 1], [1, 384], [], []]' '['"'"''"'"', '"'"''"'"', '"'"''"'"', '"'"'1'"'"', '"'"'1'"'"']' --iter 1 --time 0

>>>	result #0 shape: [5, 4]; stride: [4, 1]; dtype: torch.bfloat16; device type: cuda
